Learning/exp/4.25_CVAE_sim_success_2/best.pth (torch, 329629 bytes, 189 tensors)

embed.weight f4 [16, 2]
0	0x3f05503c	0.5207555
1	0x3e864b5e	0.26229376
2	0x3df978af	0.12181222
3	0xbed19d0d	-0.40940133
4	0xbe10dfd3	-0.14147882
5	0x3f139d31	0.5766173
6	0x3f08197a	0.53163874
7	0x3d52f90e	0.05150705
8	0x3eb3efdf	0.35143945
9	0x3ef00774	0.46880686
10	0xbea0e0df	-0.31421563
11	0x3f3dfc7f	0.74213403
12	0x3ecc173a	0.3986147
13	0x3ef319f7	0.47480747
14	0x3e386c97	0.18010174
15	0xbebadde6	-0.3649742
16	0x3f362141	0.7114449
17	0xbdff7800	-0.1247406
18	0xbf253c35	-0.64544994
19	0xbef3e9a8	-0.47639203
20	0x3f20448e	0.62604606
21	0x3f110330	0.5664549
22	0xbed95fb3	-0.42455825
23	0xbef3f573	-0.476482
24	0x3f0f28fc	0.5592191
25	0x3eaa89ee	0.33308357
26	0x3e8a15b8	0.26969695
27	0xbf19f92a	-0.6014582
28	0x3ed289e0	0.41120815
29	0xbd801698	-0.062543094
30	0x3e86c583	0.26322564
31	0xbf42d014	-0.7609875

embed.bias f4 [16]
0	0xbe06e2da	-0.13172475
1	0x3d31f3a5	0.04344525
2	0xbd9d42b8	-0.07678741
3	0x3e8f5273	0.2799259
4	0x3e7448db	0.23855917
5	0x3e004a67	0.12528382
6	0x3dc5568e	0.096356496
7	0x3dd05ace	0.101735696
8	0xbf029532	-0.51008904
9	0x3f12c324	0.5732901
10	0xbe5058de	-0.203464
11	0xbe721d3d	-0.23643966
12	0xbf29b0ed	-0.6628559
13	0x3f06bcc8	0.5263181
14	0xbeba0d07	-0.36338064
15	0xbe432ee4	-0.19060856

encoder.MLP.L0.weight f4 [32, 32]
0	0xbd6d8291	-0.057985846
1	0xbe15071c	-0.14553493
2	0x3e229d8d	0.15880413
3	0xbd3b24f2	-0.04568953
4	0x3dd6d393	0.10489573
5	0x3e4bce11	0.19902827
6	0xbdb90a5a	-0.090351775
7	0xbe4503bd	-0.19239707
8	0xbd056921	-0.032570962
9	0x3d482486	0.048862956
10	0x3d9df187	0.07712083
11	0xbda3d0d7	-0.079988174
12	0x3d9d3d66	0.076777264
13	0x3d50ee12	0.05100829
14	0x3d9c35e5	0.07627467
15	0xbe61f1a7	-0.2206484
16	0xbd2c1b71	-0.042018358
17	0xbd1e8884	-0.03870441
18	0x3db45909	0.088060446
19	0x3d199eed	0.03750508
20	0x3e083183	0.13300137
21	0x3dbcd9c3	0.09221222
22	0x3e2550f9	0.1614417
23	0xbe5bae15	-0.21453126
24	0x3c466b04	0.012110475
25	0xbbc6734f	-0.0060562263
26	0x3d73b758	0.059501022
27	0xbc3a9291	-0.011387483
28	0x3dc7fd00	0.09765053
29	0xbc931a43	-0.017956859
30	0xbd191484	-0.03737308
31	0xbe0fcac0	-0.14042187
32	0x3de2a455	0.110665
33	0xbe2ca9b9	-0.16861619
34	0x3db29a34	0.08720818
35	0x3d8d009b	0.06884881
36	0x3d424bcf	0.047435578
37	0xbd03cc76	-0.03217741
38	0x3d0b6f0f	0.03404146
39	0x3df60dab	0.12014326
40	0xbd7cd867	-0.061729815
41	0xbd35a31f	-0.044345018
42	0xbde6d224	-0.1127055
43	0xbdb9048d	-0.09034071
44	0x3d7d3ccd	0.061825562
45	0xbdfcca46	-0.12343268
46	0xbc29561b	-0.010335471
47	0xbdd7e0a9	-0.105408974
48	0x3d54718a	0.05186609
49	0xbdb0e44d	-0.08637295
50	0x3e1344fd	0.14381786
51	0xbd7d638f	-0.061862525
52	0xbdd8b763	-0.10581853
53	0x3b50e29a	0.0031873346
54	0xbdcf501f	-0.10122704
55	0x3e0ac5b0	0.13551974
56	0xbe1d46c4	-0.15359026
57	0xbe050176	-0.12988839
58	0x3d39e327	0.045382645
59	0xbd783f42	-0.060607202
60	0xbe118420	-0.14210558
61	0x3e036b7b	0.1283397
62	0x3da227f6	0.07917778
63	0xbe00a993	-0.12564687
64	0x3cc1c76d	0.023654664
65	0xbde83da2	-0.113398805
66	0xbd10cc15	-0.035350878
67	0xbd4511df	-0.048112746
68	0xbdf7eb58	-0.12105435
69	0x3dee66db	0.11640712
70	0x3dbb6a1a	0.09151097
71	0x3d9cb5b7	0.07651847
72	0x3dea3ee9	0.114377804
73	0xbe47b1ea	-0.19501463
74	0x3d8597e3	0.06523111
75	0xbdec06be	-0.115247235
76	0xbd45d65b	-0.04830013
77	0x3e2398c5	0.15976246
78	0x3c03bdd8	0.008040868
79	0xbdd3a7ad	-0.10334716
80	0x3e2dc5e1	0.16970016
81	0x3c27e145	0.01024658
82	0xbe87030c	-0.26369512
83	0xbd93f89a	-0.07225151
84	0x3e6ad130	0.22931361
85	0x3e22cd68	0.15898669
86	0x3c4227ed	0.011850339
87	0x3c7d68af	0.015466853
88	0xbde28fb0	-0.110625625
89	0x3cc513c0	0.02405727
90	0xbd177b7d	-0.036983002
91	0x3db7a6ed	0.089673854
92	0x3e3b95e6	0.183189
93	0x3e3e9e55	0.18615086
94	0x3cbba886	0.022907507
95	0x3e4fc5bb	0.20290272
96	0x3def9a03	0.11699297
97	0x3df1d93e	0.11809014
98	0x3e6ccd1f	0.23125122
99	0xbccaa61b	-0.024737408
100	0xbdd41349	-0.10355241
101	0x3db6c778	0.089247644
102	0x3d125251	0.035723034
103	0xbe0da9df	-0.13834332
104	0x3df66463	0.12030866
105	0xbe11d225	-0.1424032
106	0x3d96e520	0.07367921
107	0xbdc3caa9	-0.09560139
108	0xbe1c86cf	-0.152858
109	0xbe5daab4	-0.2164715
110	0x3da80521	0.08204103
111	0xbe2f9e94	-0.17150337
112	0x3d3a3265	0.045458216
113	0xbdce7331	-0.10080565
114	0x3da65fa6	0.08123712
115	0xbe111786	-0.1416913
116	0x3e66741e	0.22505233
117	0x3d64738a	0.05577425
118	0x3e8ae0b6	0.27124566
119	0xbe5ba717	-0.21450458
120	0x3dd14cb2	0.102197066
121	0xbd171b1a	-0.03689108
122	0x3d7b12a5	0.061297078
123	0x3c81dc51	0.015852125
124	0x3e773b9c	0.24143833
125	0xbb92ccca	-0.004479979
126	0xbc0629a7	-0.008188642
127	0x3bfcc3d3	0.0077137738
128	0xbe288b6c	-0.16459435
129	0x3e09366c	0.13399667
130	0xbc4ad5ae	-0.012380047
131	0x3c663d64	0.014052723
132	0x3de47062	0.11154248
133	0x3d89ca98	0.06728095
134	0x3e12b27a	0.14325896
135	0x3c161ac1	0.009161652
136	0x3e100823	0.14065604
137	0x3e0f2977	0.13980661
138	0x3d6a474e	0.057196908
139	0xbd290770	-0.04126686
140	0x3bf98cf2	0.007615679
141	0x3dfd9fc9	0.12383992
142	0xbd9282d0	-0.07153857
143	0xbdd55c9e	-0.10418056
144	0x3de75f34	0.112974554
145	0x3c5a43a7	0.013321794
146	0x3e308998	0.17239988
147	0x3e2d5b6b	0.16929404
148	0x3d0b305c	0.033981666
149	0x3de6a9ec	0.11262879
150	0xbde74f61	-0.11294437
151	0xbd9c3341	-0.076269634
152	0xbe24599e	-0.16049811
153	0x3ddfcdaa	0.10927899
154	0xbe3d4092	-0.18481663
155	0xbd1a9142	-0.037736185
156	0xbdfed463	-0.12442853
157	0xbce975c2	-0.028498534
158	0x3e1c34ad	0.15254469
159	0x3c300ea9	0.010745683
160	0x3dd0fb69	0.10204203
161	0x3e0b8611	0.13625361
162	0x3dd22dcf	0.102626435
163	0x3e13813e	0.1440477
164	0x3d1bdc4b	0.038051885
165	0xbd889fb3	-0.06671085
166	0x3dddfba8	0.10839015
167	0x3d57c9ac	0.052682564
168	0x3ce39b19	0.027783917
169	0xbae2a96b	-0.0017292922
170	0x3dd406c8	0.10352856
171	0xbd41854d	-0.047246266
172	0x3e23db67	0.16001664
173	0x3d25bad5	0.04046138
174	0x3e46d637	0.19417654
175	0x3d5c11bc	0.05372785
176	0xbb9885e4	-0.004654633
177	0x3e2b5760	0.1673255
178	0x3c71a8d6	0.014749726
179	0xbd37ed1d	-0.044903863
180	0x3dff7a33	0.124744795
181	0x3e09464b	0.13405721
182	0xbd9610c6	-0.07327418
183	0x3d63295b	0.05545936
184	0xbdf38200	-0.1189003
185	0xbd501748	-0.050803453
186	0x3db5d3bc	0.08878276
187	0xbe33c439	-0.17555322
188	0x3d98e835	0.07466165
189	0xbdfe2397	-0.12409132
190	0xbe536d7d	-0.20647235
191	0x3e127426	0.1430212
192	0xbde98d03	-0.11403849
193	0xbe12da7b	-0.14341156
194	0x3e282d17	0.1642345
195	0xbdd29f0b	-0.10284241
196	0xbe09e1be	-0.1346502
197	0xbd78031a	-0.060549833
198	0x3d205fbb	0.039153796
199	0xbe1e9a74	-0.15488607
200	0x3de45457	0.11148899
201	0xbd0d5247	-0.034502294
202	0x3e065276	0.13117394
203	0x3c12826f	0.008942231
204	0xbd9e1cae	-0.07720314
205	0x3ce1c851	0.027561339
206	0xbd10afaf	-0.035323795
207	0xbd908331	-0.07056273
208	0xbdf1f1e5	-0.11813716
209	0xbe091a1e	-0.13388869
210	0x3da27eb5	0.07934324
211	0x3c47e426	0.012200391
212	0xbe286e9e	-0.16448447
213	0x3de99aba	0.11406465
214	0xbc74364a	-0.014905522
215	0xbdf0261e	-0.1172602
216	0xbe060a56	-0.1308988
217	0xbd330874	-0.043709233
218	0xbd971215	-0.07376496
219	0xbdb051b3	-0.08609333
220	0xbe12a622	-0.14321187
221	0xbdd42335	-0.10358278
222	0xbdd1b60e	-0.10239802
223	0x3d98e582	0.0746565
224	0xbd8799c8	-0.06621128
225	0x3d492582	0.049108036
226	0xbe5f9c37	-0.21836935
227	0xbdbc5c2e	-0.091972694
228	0xbd1aeffe	-0.03782653
229	0xbe4d2ace	-0.2003586
230	0xbd6bd130	-0.057572544
231	0x3deeb1ca	0.11655004
232	0xbdb1c9d1	-0.086810715
233	0x3df01c1f	0.11724114
234	0x3d8d5a83	0.06902029
235	0x3e0d16a4	0.13778168
236	0xbdd98bc5	-0.10622362
237	0x3e1e1a5f	0.15439747
238	0x3e05e907	0.13077174
239	0x3e1e3867	0.15451203
240	0x3ddd4380	0.1080389
241	0x3dde583b	0.108566724
242	0x3d5e956b	0.054341715
243	0x3e2e6877	0.17032038
244	0x3d9ebca9	0.07750828
245	0xbe1a0f85	-0.15044983
246	0xbe4d2863	-0.20034938
247	0x3dcc1889	0.09965617
248	0x3cd15486	0.025553
249	0xbc876c45	-0.01653112
250	0xbd9a57c5	-0.07536272
251	0xbde5a954	-0.112139374
252	0xbe6c03ec	-0.23048371
253	0x3dafa6e5	0.085767545
254	0xbdb93593	-0.090434216
255	0xbe57c177	-0.21069895

encoder.MLP.L0.bias f4 [32]
0	0xbe2df342	-0.16987327
1	0xbd3f2cc7	-0.046673562
2	0xbc1bf204	-0.00951815
3	0xbde72669	-0.11286623
4	0x3d6058e6	0.05477228
5	0x3d90be9c	0.07067606
6	0xbca5384a	-0.020168442
7	0xbd95c682	-0.07313253
8	0xbdd969a0	-0.106158495
9	0x3d19e272	0.03756947
10	0xbb57d7d5	-0.0032935042
11	0x3d8c99d9	0.068652816
12	0x3d9c68f3	0.07637205
13	0xbe170841	-0.14749242
14	0xbe2ba110	-0.16760659
15	0x3cd20f08	0.025641933
16	0x3dfdb51a	0.12388058
17	0xbe05de80	-0.13073158
18	0x3d58a8d6	0.05289539
19	0xbd1c43ee	-0.03815072
20	0x3dd7f160	0.105440855
21	0x3b22fb71	0.002486911
22	0xbd7e839c	-0.06213723
23	0xbe324272	-0.1740816
24	0x3e11e86a	0.14248815
25	0xbe1192ba	-0.14216128
26	0xbd30d7a2	-0.043174393
27	0xbe0238c3	-0.12716965
28	0x3d51523b	0.05110381
29	0xbd9d82ae	-0.07690941
30	0x3dcf8f1c	0.10134718
31	0x3caa0426	0.020753931

encoder.MLP.L1.weight f4 [16, 32]
0	0xbe466a6a	-0.19376531
1	0xbcc4dd3e	-0.024031278
2	0xbd7c0496	-0.06152781
3	0xbe8031fc	-0.25038135
4	0x3e1fb96f	0.15598081
5	0x3cf14056	0.029449623
6	0x3e139410	0.1441195
7	0x3d627b78	0.05529353
8	0x3cb7377b	0.022365322
9	0x3c9b6153	0.018967306
10	0xbda5f3d6	-0.08103149
11	0xbce5cef3	-0.028052783
12	0x3e292284	0.16517073
13	0xbd330630	-0.043707073
14	0xbe08adad	-0.13347502
15	0xbe1c9034	-0.15289384
16	0x3de17e9c	0.11010477
17	0x3bd4b5a7	0.006491381
18	0xbdcb24f9	-0.09919161
19	0xbcbc8c01	-0.023015978
20	0xbe020c5f	-0.12700032
21	0xbd4e51dd	-0.05037104
22	0x3e57f3c1	0.21089078
23	0xbde87004	-0.1134949
24	0xbb19ea97	-0.0023485774
25	0x3dcf1b6d	0.10112653
26	0x3e56c056	0.20971808
27	0x3ca2fd72	0.019896243
28	0xbda5fb17	-0.08104532
29	0xbd1ca3ec	-0.038242266
30	0xbcf15de7	-0.029463721
31	0x3e5c355a	0.21504727
32	0xbdfcfb64	-0.123526365
33	0xbe020192	-0.12695912
34	0xbdc0f32a	-0.0942138
35	0xbe47fa62	-0.19529107
36	0x3d574c07	0.05256274
37	0x3d2ef84d	0.042717267
38	0x3cb09f87	0.021560444
39	0x3e19104a	0.1494762
40	0xbc256d21	-0.010096819
41	0xbd1e3c91	-0.03863198
42	0xbdf53c7d	-0.11974428
43	0x3d0e25da	0.034704067
44	0x3d779301	0.06044293
45	0x3db0001e	0.08593772
46	0x3d2e8b31	0.042613212
47	0xbdd5d732	-0.10441436
48	0x3de2a9fd	0.11067579
49	0x3cd3f617	0.02587418
50	0x3b1e26bb	0.0024131972
51	0xbe362530	-0.17787623
52	0x3c840172	0.01611397
53	0xbd10e610	-0.035375655
54	0x3dea3c73	0.11437311
55	0xbde15598	-0.11002654
56	0x3dd3d571	0.10343445
57	0xbe16851d	-0.14699216
58	0x3c6bed73	0.014399874
59	0x3de40bbc	0.11135051
60	0xbda6a907	-0.08137708
61	0x3e175128	0.14777052
62	0xbe028eb9	-0.12749757
63	0x3e1423db	0.14466803
64	0xbd8b2631	-0.06794394
65	0x3d09271a	0.033484556
66	0x3e01b4c2	0.1266661
67	0x3de887a5	0.11353997
68	0x3d9a6e48	0.07540566
69	0x3dcca52e	0.09992443
70	0x3e122674	0.14272481
71	0xbd369ad0	-0.044581234
72	0xbe0863b2	-0.1331928
73	0x3e6c8867	0.23098908
74	0x3e6a3b45	0.22874172
75	0x3d32f2ad	0.043688465
76	0x3dc3cd95	0.09560696
77	0x3b8a2f66	0.004217076
78	0x3e02e7ac	0.12783688
79	0xbc18b5df	-0.009320705
80	0x3d46a330	0.04849547
81	0xbd3e27e3	-0.046424758
82	0x3a83e296	0.0010062035
83	0xbd3a983d	-0.045555342
84	0x3e4e3bda	0.20140019
85	0x3e28b28c	0.1647436
86	0xbe38870d	-0.18020268
87	0x3e8ae633	0.27128753
88	0x3d367914	0.044549063
89	0xbd09064a	-0.033453263
90	0xbe134e99	-0.14385451
91	0xbc98c78e	-0.018649843
92	0x3d965e01	0.073421486
93	0x3e15170c	0.14559573
94	0xbd5e64eb	-0.05429546
95	0x3caba738	0.02095376
96	0xbdcc6a7e	-0.09981249
97	0xbdda2c09	-0.1065293
98	0x3b148d1d	0.0022667118
99	0x3d88cb98	0.066794574
100	0x3e064308	0.13111508
101	0xbdc3f630	-0.09568441
102	0xbc6deb2b	-0.0145214
103	0xbc5ede39	-0.013602787
104	0xbdacba93	-0.08434024
105	0xbcbe1ce7	-0.023207141
106	0x3cf45012	0.029823337
107	0xbdf71815	-0.1206514
108	0x3e0fb540	0.14033985
109	0x3d505d83	0.05087043
110	0x3e115be5	0.14195211
111	0x3d5bbc16	0.05364617
112	0x3e1785f4	0.14797193
113	0x3e05c59c	0.13063663
114	0xbde87614	-0.113506466
115	0xbd89ca16	-0.06727998
116	0xbe1db91a	-0.15402642
117	0xbb0d4182	-0.0021553938
118	0x3da70646	0.081554934
119	0xbdef28e7	-0.116777234
120	0xbe0eb520	-0.13936281
121	0x3e0ed29a	0.13947526
122	0xbe248cba	-0.16069308
123	0x3e017f75	0.12646277
124	0x3d9569e3	0.07295587
125	0x3de0df06	0.10980038
126	0xbd1f497c	-0.03888844
127	0x3e1fe3fd	0.15614314
128	0xbcfc99c3	-0.030835038
129	0xbbafa1f3	-0.005359882
130	0x3e0316a0	0.128016
131	0xbe2b5e42	-0.16735175
132	0xbe150b9f	-0.14555214
133	0x3b5a30ce	0.003329325
134	0x3d0a3533	0.03374214
135	0xbd37326d	-0.044725824
136	0x3ce2056f	0.027590482
137	0xbdb302f0	-0.08740795
138	0xbe050f6f	-0.12994169
139	0xbdd51d90	-0.10406029
140	0xbc5eeab0	-0.013605759
141	0xbe0afdb8	-0.13573349
142	0xbdc3a1e4	-0.095523626
143	0xbe0e8be2	-0.13920549
144	0xbe1a4dab	-0.1506869
145	0x3e2168e9	0.15762676
146	0xbe0830df	-0.13299893
147	0x3d34767d	0.04405831
148	0x3e10e279	0.14148892
149	0x3d8518cf	0.064988725
150	0x3b93d1ec	0.0045111086
151	0xbdd86fd9	-0.10568208
152	0xbe0414c3	-0.12898545
153	0x3d00eb6f	0.031474527
154	0x3cede26f	0.029038636
155	0xbe0a59d7	-0.13510834
156	0xbd38084d	-0.04492979
157	0x3d9a6b8e	0.07540046
158	0xbe1d7778	-0.15377605
159	0xbe1672b3	-0.14692192
160	0xbcfebdf2	-0.031096432
161	0xbc9261c9	-0.017868893
162	0x3d09d29a	0.03364811
163	0x3e07d8ad	0.13266249
164	0xbdc1a55b	-0.09455367
165	0xbdc35b9c	-0.095389575
166	0x3e1527ce	0.14565966
167	0x3d952423	0.07282283
168	0x3c7a02d7	0.015259466
169	0xbd828c13	-0.06374373
170	0x3d9a626d	0.075383045
171	0x3d698772	0.057013936
172	0xbd3a4403	-0.045475017
173	0x3d412caf	0.047161754
174	0xbdadf3e5	-0.08493785
175	0x3e0d9b93	0.13828878
176	0xbde87b5f	-0.11351656
177	0xbddc1258	-0.10745686
178	0x3d380e80	0.044935703
179	0xbcfc5e30	-0.03080663
180	0xbdbe09ff	-0.0927925
181	0xbc2e93f4	-0.010655392
182	0xbc442e41	-0.011973918
183	0x3d0eca63	0.03486098
184	0x3d837836	0.06419413
185	0x3d9ab976	0.07554905
186	0xbe24a79b	-0.16079561
187	0x3e0e0d84	0.13872343
188	0x3e197cd8	0.1498903
189	0x3cded9a6	0.027203392
190	0x3bba8cb6	0.0056930436
191	0x3dca6287	0.09882074
192	0x3d273317	0.040820207
193	0x3e32f7d8	0.17477357
194	0x3e37fad1	0.17966773
195	0x3e96df68	0.2946732
196	0xbd8a0ce4	-0.0674074
197	0xbcd13095	-0.025535861
198	0xbcd66276	-0.026169997
199	0xbe8c67bd	-0.27422896
200	0xbc69147b	-0.014226074
201	0x3d67f6d2	0.05663187
202	0xbd940d3f	-0.07229089
203	0x3d2f42ef	0.042788442
204	0x3d24b731	0.040213767
205	0xbde22c41	-0.11043597
206	0x3cd50a95	0.026006022
207	0xbd27cb31	-0.040965263
208	0x3ddae72d	0.106886245
209	0xbd713780	-0.05889082
210	0x3da93007	0.082611136
211	0x3d0036b5	0.031302173
212	0xbe4ad782	-0.19808772
213	0xbe21f191	-0.15814807
214	0xbdbf1892	-0.09330858
215	0xbcc66373	-0.024217343
216	0x3e1c8208	0.15283978
217	0x3d3d95c9	0.046285424
218	0x3bd1a168	0.006397415
219	0x3d161ce1	0.036648635
220	0x3da5f651	0.08103622
221	0x3e019a0c	0.1265642
222	0x3e45d878	0.19320858
223	0xbe32965f	-0.17440175
224	0xbb8dcca2	-0.0043273726
225	0x3e20f6b4	0.1571911
226	0xbd9fba9e	-0.07799266
227	0x3cb92ae8	0.022603467
228	0xbd3516bc	-0.044211134
229	0xbcd2fab2	-0.025754306
230	0xbd4f7bc7	-0.050655153
231	0xbd16486f	-0.03669017
232	0x3cc4f61d	0.024043137
233	0x3d86d847	0.065842204
234	0x3d933384	0.0718756
235	0x3dfb56f6	0.12272446
236	0xbdc2d586	-0.095133826
237	0x3cf079d1	0.029354962
238	0x3da7a125	0.08185033
239	0x3de4ef39	0.111784406
240	0xbd5f4375	-0.05450769
241	0xbd86c340	-0.0658021
242	0xbe200a7c	-0.15629
243	0xbdaf870a	-0.085706785
244	0xbe2f13fa	-0.17097464
245	0xbe429cd5	-0.19005139
246	0x3de985f9	0.114025064
247	0x3e199a73	0.15000324
248	0xbe0081f2	-0.1254957
249	0xbe42d7c2	-0.19027618
250	0x3c0ca3f3	0.00858401
251	0x3db2ba07	0.08726888
252	0xbe0fb73f	-0.14034747
253	0xbd8e38e1	-0.069444425
254	0x3d5f42be	0.05450701
255	0xbc47b064	-0.012188051

encoder.MLP.L1.bias f4 [16]
0	0x3cfe1f92	0.031020913
1	0xbdbcd5d8	-0.09220475
2	0x3e0b3a73	0.13596515
3	0x3e300ac8	0.17191613
4	0x3dc769de	0.097369894
5	0xbe16ecd6	-0.14738783
6	0x3e1f47ce	0.15554735
7	0x3ba9ea68	0.005185414
8	0x3cda65cc	0.026659869
9	0xbdc7834e	-0.09741841
10	0x3e150d35	0.1455582
11	0xbd95ec8d	-0.07320509
12	0x3de2159a	0.110392764
13	0x3e24b2b5	0.16083796
14	0x3cf17033	0.029472446
15	0xbd08a2b5	-0.033358295

encoder.linear_means.weight f4 [16, 16]
0	0x3c194fa6	0.009357369
1	0x3dc92f26	0.09823446
2	0x3a78b657	0.000948762
3	0xba27c4ce	-0.00063998706
4	0xbd8db94d	-0.06920109
5	0xbb99cfb3	-0.004693949
6	0x3b8c25f5	0.004276986
7	0x3da5f9b7	0.0810427
8	0x3e600a06	0.21878824
9	0x3df32199	0.118716426
10	0x3b80d889	0.003932063
11	0x3bcdef80	0.006284654
12	0xb9fba723	-0.00047998977
13	0x3dccdae2	0.10002686
14	0xbbf75b41	-0.00754872
15	0xbbdd11d2	-0.006746509
16	0xbb119b8f	-0.0022217964
17	0x3d3e3f74	0.046447232
18	0xba0c648c	-0.0005355559
19	0x3b777d3a	0.003776385
20	0xbe11a6cf	-0.14223789
21	0xbb534d56	-0.003224214
22	0xbbee8b55	-0.0072797933
23	0xbda18961	-0.07887531
24	0x3e389a39	0.18027581
25	0xbd87b09a	-0.06625481
26	0x3b89561c	0.0041911732
27	0x3bf0764c	0.007338321
28	0xbaec768f	-0.0018040704
29	0x3e33cf7e	0.1755962
30	0xbb37b670	-0.0028032325
31	0x3b890549	0.0041815382
32	0x3b3eebfd	0.002913236
33	0x3d498f94	0.049209192
34	0x3a80a245	0.0009813985
35	0xbc28993a	-0.010290438
36	0xbc9b69ef	-0.018971412
37	0x3bdfdadf	0.0068315114
38	0x3c57b53b	0.013165767
39	0x3e5920b7	0.21203886
40	0x3e3c37dc	0.18380684
41	0x3d837814	0.064193875
42	0xbc312add	-0.010813442
43	0xbb91ad68	-0.0044457205
44	0xbae83ef5	-0.0017718958
45	0xbc927969	-0.017880158
46	0x3adc77c7	0.0016820364
47	0xbb89754b	-0.0041948906
48	0x3b80d1e9	0.0039312732
49	0x3cdee7d5	0.027210156
50	0xbc037417	-0.008023283
51	0xbc5d43b9	-0.013504916
52	0x3e0c62d1	0.1370957
53	0x3d8ae21a	0.06781407
54	0x3baf7742	0.005354793
55	0x3d582c3e	0.052776568
56	0xbe047b8e	-0.12937757
57	0xbd81730d	-0.06320772
58	0xbba3d8d0	-0.0050002113
59	0x3c4cff5f	0.012512057
60	0x3b8f5009	0.0043735546
61	0xbddd18cc	-0.10795745
62	0xbba5c4f8	-0.005058881
63	0xbb8ccb0f	-0.0042966674
64	0xbc0c0c65	-0.008547877
65	0xbca46c64	-0.020071216
66	0xbc275f39	-0.010215574
67	0xbc72dabd	-0.014822659
68	0xbe0faf7b	-0.14031784
69	0x3da66bc1	0.08126021
70	0x3c4ebd9e	0.01261845
71	0x3e251ec8	0.16125023
72	0x3d9058f0	0.070482135
73	0xbe2dc11a	-0.16968194
74	0xbc9cfb08	-0.01916267
75	0xbbd56520	-0.006512299
76	0x3c18f3a5	0.009335433
77	0x3da80b19	0.08205242
78	0x3c7979a9	0.01522676
79	0x3bd0a7f6	0.0063676788
80	0x3ce9c221	0.02853495
81	0xbe25b4ce	-0.16182253
82	0xba299d7d	-0.0006470306
83	0xbcb6e6e6	-0.022326898
84	0x3db0787b	0.0861673
85	0x3bd3a857	0.0064592767
86	0x3d16d861	0.03682745
87	0x3e46382a	0.19357362
88	0x3decd888	0.115647376
89	0x3d1dd0eb	0.038529318
90	0xbc211355	-0.009831269
91	0xbb25e141	-0.0025311264
92	0x3ac19cef	0.0014771501
93	0xbe5447bd	-0.20730491
94	0xbc687e91	-0.014190332
95	0xbd070d99	-0.032971952
96	0x3bb5352c	0.00553002
97	0xbca55b50	-0.020185143
98	0xb732fa67	-1.0667928e-05
99	0x3aa779a7	0.0012777344
100	0xbe48dbee	-0.19615147
101	0xbb8d7349	-0.0043167216
102	0xbb9c0e14	-0.0047624204
103	0xbdcb2e39	-0.09920926
104	0x3df48caf	0.11940896
105	0xbcd90525	-0.02649171
106	0x3c112914	0.008859891
107	0x3bdc3911	0.00672067
108	0xba59b071	-0.0008304185
109	0x3a66dd27	0.0008806758
110	0xbbbdc280	-0.0057910085
111	0xbb9b045e	-0.004730745
112	0xbc954a44	-0.01822389
113	0xbd855444	-0.06510213
114	0x3c1124a3	0.0088588325
115	0x3cb2e6b5	0.021838525
116	0xbe3d83b3	-0.1850727
117	0xbda9a4be	-0.08283375
118	0xbc52ec44	-0.012873713
119	0xbe0a7b0c	-0.13523501
120	0xbe76277e	-0.24038503
121	0x3d499d28	0.04922214
122	0xbaafaf2d	-0.0013403647
123	0xbc4d8018	-0.012542747
124	0xbbe9b9c0	-0.007132739
125	0xbdd13d91	-0.10216821
126	0x3c0335de	0.008008448
127	0x3c9505f3	0.018191313
128	0x3e8dcbe8	0.2769463
129	0x3b653240	0.0034972578
130	0xbee7f225	-0.4530193
131	0xbe2876af	-0.16451524
132	0xbdef744a	-0.11692102
133	0xbe258615	-0.1616443
134	0x3ca31c1f	0.01991087
135	0xbd4ea1d6	-0.050447308
136	0x3d9c75a3	0.07639625
137	0xbe580850	-0.21096921
138	0x3e12e323	0.14344458
139	0xbe93849c	-0.2881211
140	0xbdb5d0e8	-0.08877736
141	0xbe609233	-0.2193077
142	0xbeb0eb74	-0.34554636
143	0x3f067d16	0.52534616
144	0x3c7c225a	0.015389049
145	0x3d8de560	0.069285154
146	0x3bca4034	0.0061722044
147	0xba9898b8	-0.0011642193
148	0x3c7d60a5	0.015464936
149	0xbcfe4a03	-0.03104115
150	0x3c220379	0.009888523
151	0xbdfa4aaf	-0.12221276
152	0xbd65d65d	-0.056112636
153	0xbe4d7c04	-0.2006684
154	0x3b80153a	0.0039087804
155	0x3ae098bf	0.0017135366
156	0xbb632e52	-0.003466506
157	0x3dac7b47	0.08421951
158	0xbc21d8c8	-0.009878345
159	0xbc5ffed2	-0.013671594
160	0x3c1aed0f	0.009455933
161	0xbd0c5a66	-0.0342659
162	0xbab931a4	-0.0014129174
163	0xbaf63aab	-0.0018785795
164	0xbe32fff8	-0.17480457
165	0x3a52f112	0.00080467865
166	0x3b1c58d3	0.0023856654
167	0x3c0fc71a	0.008775497
168	0x3e31369a	0.17305985
169	0xbce11fd7	-0.027481003
170	0x3bc5846e	0.0060277497
171	0x3be4551b	0.006968153
172	0x3a1c3012	0.0005958091
173	0x3e314406	0.17311105
174	0xbc10cfe4	-0.0088386275
175	0xbc1d4e99	-0.009601259
176	0xbbf5cd94	-0.0075013135
177	0x3c140284	0.009033803
178	0x3a7d562f	0.00096640264
179	0xbb558a9c	-0.0032583838
180	0xbe5df2e8	-0.21674693
181	0x3c52cac9	0.012865731
182	0x3b68e6ee	0.0035538035
183	0x3e2cd9d6	0.16879973
184	0x3e25d949	0.16196169
185	0x3def3d89	0.11681659
186	0xbc391565	-0.011296605
187	0xbb906fc7	-0.004407856
188	0xb99990c7	-0.00029290302
189	0x3d7d4463	0.061832797
190	0x3af3d052	0.0018601513
191	0x3bb35c4d	0.0054736496
192	0x3b1a1351	0.0023510049
193	0xbca1a609	-0.019732492
194	0xbb386cb0	-0.0028140955
195	0x3b8ac931	0.0042354097
196	0x3e29814f	0.16553234
197	0xbbae02b4	-0.005310381
198	0xbc97c99c	-0.018528752
199	0x3e4d2a01	0.20035554
200	0x3bd32ccc	0.006444549
201	0xbe5060f2	-0.20349482
202	0x3c9649c0	0.018345714
203	0x3c6e07ae	0.014528198
204	0xbb4309d5	-0.00297605
205	0xbe40a9a1	-0.18814708
206	0xbc0dc47f	-0.008652805
207	0xbaeab5eb	-0.0017906999
208	0x3eefafba	0.46813756
209	0x3e64dbec	0.22349519
210	0xbe068156	-0.13135275
211	0x3dc8e5c4	0.09809449
212	0x3e572fa9	0.21014275
213	0x3de49ddc	0.11162922
214	0xbea6f004	-0.32604992
215	0x3e18d0ba	0.14923373
216	0xbc01b927	-0.007917679
217	0x3d8313b8	0.064002454
218	0xbee9260c	-0.4553684
219	0xbd5c9d46	-0.053860925
220	0x3db1f2d0	0.08688891
221	0x3dd1ec54	0.10250154
222	0x3e4be823	0.19912772
223	0xbe04cc9f	-0.12968682
224	0xbbbf0cfd	-0.0058304057
225	0xbca36845	-0.01994718
226	0xbbf37136	-0.0074292673
227	0xbc7f35b8	-0.015576772
228	0x3e02b1b3	0.127631
229	0x3d8abbc8	0.06774098
230	0x3c25fcae	0.010131044
231	0x3e3b76fc	0.18307108
232	0x3d1dd291	0.03853089
233	0x3d3bdb38	0.04586336
234	0xbc769f59	-0.01505264
235	0xbbed037a	-0.0072330805
236	0x3bc16d93	0.005902955
237	0x3d8cbc1a	0.06871815
238	0x3c744ec1	0.0149113545
239	0x3b907b6b	0.004409244
240	0xb98e3977	-0.00027127165
241	0xbd493ba7	-0.049129155
242	0x3bc92f33	0.00613966
243	0x3a2f9065	0.00066972367
244	0xbe5d0447	-0.21583663
245	0xbd2ab452	-0.041675873
246	0x3a1f16e8	0.0006068782
247	0x3e1c6eea	0.15276685
248	0x3e4f83f6	0.20265183
249	0x3e6a3d35	0.22874911
250	0x3aaeec81	0.001334563
251	0xbc6c4faf	-0.014423295
252	0xbba1e1fe	-0.0049402704
253	0xbe0fe789	-0.14053167
254	0x3b99291a	0.004674089
255	0xbab0f14f	-0.001349965

encoder.linear_means.bias f4 [16]
0	0xbc5ecdb5	-0.013598849
1	0x3b70d7f3	0.003674981
2	0x3a042893	0.00050414464
3	0x3c2c30c0	0.01050967
4	0xbab34e77	-0.001368
5	0xbbed9971	-0.0072509577
6	0xb799a8ab	-1.8317563e-05
7	0x3bd0e2e3	0.0063747033
8	0xbdfdab18	-0.12386149
9	0xbc9b49d2	-0.018956099
10	0xb9470f41	-0.00018983801
11	0x3c698218	0.014252208
12	0x3ca93e8d	0.02065971
13	0x3e0f1d45	0.13976009
14	0xbafafe65	-0.0019149302
15	0x3b3a6478	0.0028441232

encoder.linear_log_var.weight f4 [16, 16]
0	0xbabb3344	-0.0014282246
1	0x3c7b19fd	0.01532602
2	0xbb20b1a6	-0.002451995
3	0xbacd7ed2	-0.0015678054
4	0x3e7efdf2	0.2490156
5	0x3c0183f8	0.007904999
6	0xb8cc28ea	-9.735099e-05
7	0x3d3f4d4a	0.046704568
8	0xbdeefb16	-0.116689846
9	0x3e2df001	0.16986085
10	0xbaa416ec	-0.0012519038
11	0x3acc08d5	0.0015566597
12	0x39bdaf6d	0.00036179592
13	0xbe0e9a51	-0.13926055
14	0x3b41525c	0.0029498553
15	0x3af5d772	0.0018756224
16	0x3acca55b	0.0015613245
17	0xbc35f171	-0.011104927
18	0xbb961dac	-0.004581174
19	0xbbecbb2f	-0.0072244625
20	0xbe21ee2f	-0.15813516
21	0x3cc1a9b3	0.02364049
22	0x3bc3130b	0.005953198
23	0xbe415630	-0.18880534
24	0x3e5871f9	0.21137227
25	0xbc2f573e	-0.0107019525
26	0xbb9970e3	-0.0046826466
27	0x3b1c07b1	0.0023808295
28	0x3ae8b396	0.0017753716
29	0x3e5551a1	0.2083192
30	0x3ae4a79d	0.0017444972
31	0xbb142500	-0.0022605062
32	0xbb119bb6	-0.0022218055
33	0x3c1e3d51	0.009658174
34	0x391f50a5	0.00015193464
35	0x3b239ce6	0.0024965345
36	0xbd0cc522	-0.034367688
37	0xbb0e7178	-0.0021735113
38	0xbb52482c	-0.0032086475
39	0x3e1bb35c	0.15205139
40	0x3db0d159	0.0863368
41	0xbe6b5760	-0.2298255
42	0x3a8e22ac	0.0010844073
43	0xb97132d1	-0.00023002482
44	0x390fdbed	0.00013719471
45	0xbe099bcc	-0.13438338
46	0x3b0df65e	0.002166174
47	0x3b50a036	0.0031833774
48	0xbc077c34	-0.008269358
49	0x3d265146	0.040604852
50	0x3bcf1a84	0.0063202996
51	0x3c8247f5	0.015903452
52	0xbe7429dd	-0.23844095
53	0xbd517f1b	-0.051146608
54	0xbc82fab9	-0.015988695
55	0x3e0e06f7	0.13869844
56	0xbe322bd6	-0.17399535
57	0x3e10d487	0.14143573
58	0x3c1a417d	0.009415028
59	0xbb80b253	-0.003927508
60	0xbb925850	-0.004466094
61	0xbe18d064	-0.14923245
62	0x3aea98d7	0.0017898333
63	0x3c17358a	0.009229073
64	0x3aacfd7f	0.0013198106
65	0xbc9d5597	-0.019205851
66	0x3b8ad3e9	0.0042366874
67	0x3b885e58	0.0041616373
68	0x3e623a4f	0.22092555
69	0xbcd45599	-0.025919722
70	0xba16ca8a	-0.00057522266
71	0x3dd472e1	0.10373474
72	0xbaeac8bf	-0.001791261
73	0xbe8404df	-0.25784966
74	0x3b2fdd51	0.0026834796
75	0xbb9bcc63	-0.0047545894
76	0xbac59dae	-0.00150769
77	0xbe2efe3f	-0.17089175
78	0xbb1387fc	-0.0022511473
79	0xbb2a8229	-0.0026017523
80	0xbae7e86b	-0.0017693167
81	0xbc1c3897	-0.009534976
82	0x39825d97	0.00024865262
83	0x3b5c20ec	0.003358896
84	0xbd8946c0	-0.067029476
85	0xbae96dcf	-0.0017809215
86	0xbb3f3786	-0.0029177382
87	0x3e4676db	0.19381277
88	0x3d28b290	0.041185915
89	0xbe73b17b	-0.23798172
90	0x3a9e6b80	0.0012086481
91	0xb79e9ea8	-1.8908948e-05
92	0x3a07d9be	0.00051822874
93	0xbe306d66	-0.17229232
94	0x3b433d49	0.0029791167
95	0x3b7d488c	0.0038647978
96	0xba9b3b50	-0.0011843238
97	0x3b33a1a6	0.0027409582
98	0x3bfb365a	0.0076663913
99	0x3c4442fc	0.011978861
100	0xbe62b9be	-0.22141168
101	0xbd508ef8	-0.050917596
102	0xbbe05dcf	-0.0068471204
103	0xbe3fa9f1	-0.18717171
104	0xbda85e33	-0.08221092
105	0x3df50744	0.119642764
106	0x3be056af	0.006846271
107	0xbbbc1a06	-0.005740407
108	0xbb6602b8	-0.0035096835
109	0xbda9acb0	-0.08284891
110	0xbb28a678	-0.0025733989
111	0x3aad2f3e	0.0013212932
112	0x3b32cab9	0.0027281477
113	0xba5dc339	-0.00084595714
114	0x397b3cd2	0.00023959883
115	0xbaa42e2a	-0.0012525965
116	0x3ccfbcae	0.025358524
117	0x39dd97b7	0.0004226544
118	0x3b96e261	0.004604623
119	0xbdc2ea9a	-0.09517403
120	0x3e416236	0.18885121
121	0xbd1ad559	-0.03780112
122	0xbaf74e02	-0.0018867853
123	0xbb122e9e	-0.0022305618
124	0x3a9a4c26	0.0011771962
125	0xbe357955	-0.17722066
126	0x39e72123	0.00044084442
127	0xbb27c231	-0.0025597925
128	0xbdd16658	-0.10224599
129	0x3d6d6652	0.05795891
130	0x3d863f23	0.06555011
131	0xbdaa199b	-0.08305665
132	0x3dbb940a	0.091590956
133	0xbe2094a7	-0.15681706
134	0xbe68c868	-0.22732699
135	0x3e3db390	0.18525529
136	0x3d2b3021	0.041793946
137	0x3d666de9	0.056257162
138	0x3e4386c4	0.19094378
139	0xbd382196	-0.044953905
140	0x3effff8f	0.49999663
141	0xbe743491	-0.23848177
142	0xbe9666f7	-0.2937543
143	0xbe24964c	-0.16072959
144	0xbbed1d59	-0.0072361645
145	0xbc9c0abc	-0.019048087
146	0xba9f4812	-0.0012152216
147	0x3b85c3f8	0.004082199
148	0xbe3f7a52	-0.18699005
149	0xbb3856b2	-0.0028127846
150	0xbc0e2a0a	-0.008677015
151	0x3e5db38d	0.21650524
152	0x3e4fc54a	0.20290104
153	0xbd6d1088	-0.057877094
154	0x3b19c6c2	0.0023464416
155	0x39cd8f6a	0.000392075
156	0xba5f1d80	-0.0008511171
157	0x3e2b2174	0.1671198
158	0x3ba570f2	0.0050488645
159	0x3bf418a8	0.0074492283
160	0xbc0617bd	-0.008184371
161	0xbcbcb5c2	-0.023035888
162	0xbc117a49	-0.008879253
163	0xbbc4d192	-0.006006428
164	0xbddfe871	-0.109330066
165	0x3d3de1f7	0.046358075
166	0xbbadbbda	-0.0053019347
167	0xbe0fdeec	-0.14049882
168	0x3e4f38ae	0.20236465
169	0x3dff0577	0.12452214
170	0xbb54eaa7	-0.0032488497
171	0x3be8e323	0.007107155
172	0x3b0f577b	0.002187221
173	0x3df3d6b9	0.119061895
174	0x3c12eb42	0.008967223
175	0x3c183613	0.009290236
176	0x3c27719a	0.010219956
177	0xbc66ce99	-0.014087343
178	0x3aa1763c	0.0012318562
179	0xbbbcfbf7	-0.0057673412
180	0x3e2ec47f	0.17067145
181	0x3b10b0a3	0.002207794
182	0x3c63bbcd	0.013899756
183	0xbe2608b3	-0.16214256
184	0xbe283ac7	-0.16428672
185	0xbe3adef5	-0.18249114
186	0xbb8ca0ac	-0.0042916145
187	0xbb7dabfc	-0.0038707247
188	0x3b1a0b76	0.0023505366
189	0xbe506307	-0.20350276
190	0xbba5289d	-0.005040242
191	0xbc3d5522	-0.011555942
192	0xbc950e72	-0.018195365
193	0x3bcf38d6	0.006323914
194	0xbb7abde7	-0.0038260163
195	0x3c2848d1	0.010271267
196	0x3df0b2bc	0.11752841
197	0xbba78ccb	-0.0051132194
198	0xbcc2fec0	-0.023803115
199	0x3e180222	0.14844564
200	0xbe0f61cc	-0.1400215
201	0xbd315863	-0.043297183
202	0x3bdb95fb	0.0067012287
203	0x3ba18420	0.0049290806
204	0xbb43b9e5	-0.002986544
205	0xbceb2c5f	-0.028707681
206	0x3c5fa8a6	0.013651049
207	0x3cb0b6a1	0.02157146
208	0x3db98dc9	0.090602465
209	0xbe5ec473	-0.21754627
210	0x3e2b63ac	0.1673724
211	0xbe1dd34b	-0.15412633
212	0xbe19e730	-0.15029597
213	0x3e3dda02	0.18540195
214	0xbdebc27d	-0.11511705
215	0xbd839964	-0.06425741
216	0x3dcf0eee	0.101102695
217	0xbd8d8eec	-0.06912026
218	0xbea3ee84	-0.3201791
219	0xbd8efdc4	-0.06981996
220	0x3bdd68bb	0.0067568696
221	0xbdf24cac	-0.1183103
222	0xbea93c93	-0.33054027
223	0xbce20bad	-0.027593458
224	0x3be37b3e	0.006942182
225	0xbca2d498	-0.019876763
226	0x3997ed48	0.00028977753
227	0xbbc5eba4	-0.0060400534
228	0xbe084484	-0.13307387
229	0x3b1a8be7	0.0023581923
230	0x3c1714bc	0.009221252
231	0xbcece294	-0.028916635
232	0x3d84b94f	0.06480657
233	0xbe16b444	-0.14717203
234	0xbb329a90	-0.002725277
235	0xbac47383	-0.0014988038
236	0x39eaed96	0.00044808973
237	0x3e509247	0.203683
238	0xbb7a0e17	-0.003815537
239	0xbc0f8708	-0.008760221
240	0x3bcf1f11	0.006320842
241	0xbc565f71	-0.013084278
242	0xbace3826	-0.0015733286
243	0xbc043645	-0.0080695795
244	0x3e2a7b4c	0.16648597
245	0x3c1964ef	0.009362443
246	0x3c1f8135	0.009735395
247	0x3e685f9a	0.22692719
248	0xbd87de5e	-0.0663421
249	0x3debe8d7	0.1151902
250	0xbb7eeec7	-0.0038899647
251	0xb84dbbe7	-4.9050806e-05
252	0x3a192114	0.0005841416
253	0x3e2c1119	0.16803397
254	0xbb1d0c47	-0.0023963617
255	0xbc062fa7	-0.008190072

encoder.linear_log_var.bias f4 [16]
0	0xba2c0671	-0.0006562239
1	0x3aec78bd	0.0018041354
2	0xbb54987e	-0.0032439525
3	0x3b1a68b8	0.0023560952
4	0x3a6e984e	0.00091016747
5	0xbc265045	-0.010150974
6	0xbb346af5	-0.0027529572
7	0xbbf4c06b	-0.007469227
8	0xbeb39507	-0.35074636
9	0x3bb56603	0.0055358424
10	0x3bed444f	0.007240809
11	0xbc0ff5fd	-0.0087866755
12	0x3bf0ad36	0.007344867
13	0xbed4980f	-0.41522262
14	0x3a3c8e8c	0.0007192872
15	0x3b2418fa	0.0025039301

decoder.MLP.L0.weight f4 [16, 32]
0	0x3d55c903	0.052193653
1	0x3d35e4a4	0.0444075
2	0xbd85ab0f	-0.065267675
3	0x3d4538d6	0.048149906
4	0xbcb9a333	-0.022660827
5	0xbd87c438	-0.06629223
6	0xbcb9732c	-0.022637926
7	0xbca045dd	-0.019564563
8	0x3e7e44e6	0.2483097
9	0xbd94bf4d	-0.0726305
10	0xbcb190af	-0.021675436
11	0xbdaaa609	-0.0833245
12	0x3cea49de	0.028599676
13	0x3f4cb86e	0.7996892
14	0xbcf6f09d	-0.03014403
15	0x3cceeeb9	0.025260316
16	0xbe853fec	-0.2602533
17	0xbdfd4f2e	-0.12368618
18	0x3e0dcd25	0.13847788
19	0xbe67361d	-0.22579236
20	0x3e48c35f	0.19605778
21	0x3d9a9a3a	0.07548948
22	0x3c908d48	0.017645493
23	0xbe1cf228	-0.1532675
24	0x3e2cf105	0.16888817
25	0xbcaff399	-0.021478461
26	0x3e22a7a8	0.15884268
27	0xbdcec14f	-0.100954644
28	0x3d933fb9	0.071898885
29	0x3dae068a	0.08497341
30	0x3dd9c773	0.10633745
31	0xbe256fce	-0.16155931
32	0x3ba3aefe	0.004995226
33	0xbc019d88	-0.0079110935
34	0xbda356cc	-0.079755396
35	0x3e1b5cb4	0.15172082
36	0x3ccccbcf	0.024999527
37	0x3e02315c	0.12714142
38	0x3b84e1ad	0.004055223
39	0xbd9cf381	-0.07663632
40	0x3e06957f	0.13142966
41	0xbd865e57	-0.06560963
42	0xbda87da6	-0.082270905
43	0xbdfcd10e	-0.123445615
44	0xbe193722	-0.14962438
45	0xbe179e87	-0.14806567
46	0xbd9e5e0c	-0.07732782
47	0xbd04709d	-0.03233396
48	0xbdb8f1cc	-0.09030494
49	0xbd6c7e2c	-0.057737514
50	0x3e12c96c	0.14334649
51	0x3d36ed04	0.04465963
52	0xbdd8a8a6	-0.10579042
53	0x3d4a1d74	0.049344495
54	0x3e228d7e	0.15874287
55	0xbdc3eb28	-0.09566337
56	0xbd2dc5a9	-0.04242483
57	0xbdcb34ff	-0.099222176
58	0xbb77fdfb	-0.0037840593
59	0xbc198b5e	-0.009371607
60	0x3d22635f	0.03964555
61	0xbe33ca40	-0.17557621
62	0x3d932b7b	0.071860276
63	0xbe1e60e7	-0.15466653
64	0x3db433d4	0.08798948
65	0x3d981fb6	0.074279234
66	0xbe15a9dd	-0.14615579
67	0x3d7e9153	0.06215031
68	0xbd2fd1ae	-0.042924576
69	0xbc9331ed	-0.017968142
70	0x3c92691d	0.017872388
71	0xbd203049	-0.03910855
72	0xbe685f02	-0.22692493
73	0xbd90f862	-0.07078625
74	0x3d5de4c0	0.05417323
75	0xbdf476f5	-0.11936752
76	0x3da9eaf2	0.082967654
77	0x3f0f355a	0.55940783
78	0xbe0e496d	-0.13895197
79	0xbdc712e4	-0.097204
80	0x3d97f218	0.074192226
81	0x3dc15bd7	0.09441345
82	0xbe0d5712	-0.13802746
83	0xbe19a2b6	-0.15003476
84	0x3e47ff3c	0.19530958
85	0x3d8fb53b	0.07016989
86	0x3e2aa081	0.1666279
87	0xbd145377	-0.03621241
88	0xbbbf4d71	-0.005838089
89	0x3dfb5123	0.12271335
90	0xbdac13bb	-0.08402201
91	0x3e3fdc6e	0.18736431
92	0x3e1298e5	0.14316137
93	0x3d32440c	0.043521926
94	0xbe016a4c	-0.12638205
95	0xbd47cb2d	-0.048777748
96	0x3de9c998	0.11415404
97	0x3d9ea0c7	0.077455096
98	0xbbe6105e	-0.007020994
99	0x3d15b56c	0.03654997
100	0xbe12a751	-0.14321639
101	0x3cbe77fa	0.023250569
102	0x3d1dfa97	0.03856906
103	0xbdc0efbb	-0.09420725
104	0x3d2cc9b8	0.04218456
105	0x3dcd5223	0.10025432
106	0x3c43e868	0.011957265
107	0xbde359f7	-0.11101144
108	0x3d69fcab	0.05712573
109	0xbe923ee2	-0.285636
110	0xbdc574aa	-0.096413925
111	0xbc63f24c	-0.013912749
112	0xbe75be93	-0.2399848
113	0x3c83c54e	0.016085293
114	0x3e9db727	0.30803797
115	0xbde80820	-0.11329675
116	0x3d555d47	0.05209091
117	0xbda5f768	-0.081038296
118	0xbeb5f1fe	-0.35536188
119	0x3e5242c4	0.20533282
120	0x3e607e1d	0.21923108
121	0x3d8991ea	0.06717284
122	0x3e600887	0.21878253
123	0x3d7d198a	0.061791934
124	0xbe7b2629	-0.24526276
125	0xbe427522	-0.18989995
126	0x3db3bd75	0.087763704
127	0xbe705216	-0.23468813
128	0xbd0fa78b	-0.03507189
129	0x3e19220d	0.14954396
130	0xbd8467c4	-0.06465104
131	0xbc616800	-0.013757706
132	0xbde1149f	-0.10990261
133	0x3e022155	0.12708028
134	0xbdb27792	-0.087142125
135	0x3e25e70b	0.16201417
136	0x3e021075	0.1270159
137	0x3ad81f18	0.0016488759
138	0x3dbb4890	0.091446996
139	0xbdb6286d	-0.08894429
140	0x3e2d5113	0.16925459
141	0xbc98410b	-0.018585702
142	0xbd831a77	-0.06401532
143	0xbbc5ff87	-0.006042424
144	0xbc18bf3d	-0.0093229385
145	0xbda1f628	-0.07908279
146	0xbe16dcc0	-0.14732647
147	0x3e08b1df	0.13349102
148	0x3bcb3f52	0.0062026167
149	0x3e2615b4	0.16219217
150	0x3b7780a9	0.0037765896
151	0x3de1be3c	0.110226125
152	0xbe32eb0c	-0.17472476
153	0xbd84a240	-0.06476259
154	0xbda4263f	-0.08015107
155	0xbdfd15ed	-0.12357698
156	0xbd914d7b	-0.07094856
157	0x3dd36176	0.103213236
158	0x3cafa610	0.02144149
159	0xbd7c02c2	-0.061526068
160	0x3e0eeb62	0.13956979
161	0x3d2d2b24	0.04227747
162	0x3e003eed	0.12524004
163	0x3db6278c	0.08894262
164	0xbe1c6ffc	-0.15277094
165	0xbe1e640d	-0.15467854
166	0xba79dca3	-0.00095314736
167	0xbe0179d8	-0.12644136
168	0x3d58560f	0.052816447
169	0xbd87b31c	-0.06625959
170	0x3e230cd4	0.15922862
171	0x3c994e9a	0.018714238
172	0x3d05dc18	0.0326806
173	0xbd6375c1	-0.05553222
174	0xbddf83bd	-0.10913799
175	0x3d2ae008	0.04171756
176	0xbe07f608	-0.13277447
177	0xbde86289	-0.11346919
178	0x3e0eeb83	0.13957028
179	0xbd85e5bc	-0.06537959
180	0x3bdd5823	0.0067548915
181	0x3c9507cb	0.018192193
182	0x3c34144f	0.01099117
183	0x3e166e07	0.1469041
184	0xbe372dc1	-0.17888547
185	0xbd058e66	-0.032606505
186	0xbcd17ec6	-0.025573146
187	0xbe206c58	-0.1566633
188	0xbe2596fd	-0.16170879
189	0x3e1809cf	0.14847492
190	0xbd76ecc0	-0.060284376
191	0x3ca222cc	0.019791983
192	0xbe243794	-0.16036826
193	0x3e16d68e	0.14730284
194	0xbdd8a4af	-0.10578286
195	0xbe156005	-0.1458741
196	0xbe09e8c0	-0.13467693
197	0xbd1e9fdb	-0.03872667
198	0x3d6c0753	0.057624172
199	0xbe0d9567	-0.13826524
200	0xbe213d9b	-0.15746157
201	0xbda2d265	-0.07950286
202	0xbe18b483	-0.1491261
203	0x3e006e9b	0.12542193
204	0xbd24cfb5	-0.040237147
205	0x3b92181c	0.0044584405
206	0xbdf47e2c	-0.11938128
207	0x3df42192	0.119204655
208	0x3dacf4ea	0.08445151
209	0xbbbf81b4	-0.0058443192
210	0xbd269cc2	-0.04067684
211	0x3d214328	0.039370686
212	0x3e05f300	0.13080978
213	0xbcf97cfc	-0.030455105
214	0xbd95f239	-0.07321591
215	0x3d943132	0.07235946
216	0xbe0e749b	-0.13911669
217	0xbdb711b6	-0.08938925
218	0xbd2d2cab	-0.042278927
219	0x3c3ed0ff	0.011646508
220	0xbe1d5e5a	-0.15368024
221	0xbc18ccb5	-0.00932615
222	0x3e1a684b	0.15078847
223	0xbdff3ceb	-0.12462791
224	0x3caa2e26	0.020773958
225	0xbdf27c79	-0.118401475
226	0xbd3fe9e8	-0.04685393
227	0x3e09336f	0.13398527
228	0x3ddad6ea	0.10685523
229	0xbb51a371	-0.0031988288
230	0xbc0fe36b	-0.008782248
231	0xbd9c08d9	-0.07618875
232	0x3d37082e	0.044685535
233	0x3e26bbb2	0.16282538
234	0xbe23a986	-0.15982637
235	0x3e1804e9	0.14845623
236	0xbe127989	-0.14304174
237	0xbc94dc1f	-0.018171368
238	0xbc7a887c	-0.0152913295
239	0x3d43671a	0.047705747
240	0xbe2b972a	-0.16756883
241	0x3ddafc6d	0.10692678
242	0xbd3ec7fc	-0.04657744
243	0xbdf3cd7b	-0.11904427
244	0xbe0a8fe2	-0.1353145
245	0xbe15f4ee	-0.14644215
246	0x3e108c10	0.1411593
247	0xbe10620c	-0.14099902
248	0xbda5626b	-0.08075412
249	0xbddbe235	-0.10736505
250	0xbe0d4791	-0.13796832
251	0x3de62776	0.11237995
252	0xbb92e81e	-0.004483237
253	0xbadd1d3f	-0.0016869678
254	0x3d15807e	0.036499493
255	0xbe303b40	-0.17210102

decoder.MLP.L0.bias f4 [16]
0	0xbd95887d	-0.07301424
1	0xbd89d674	-0.06730357
2	0x3e44aa4b	0.19205587
3	0x3e5c38a5	0.21505983
4	0x3dceb2fc	0.10092732
5	0xbce78d51	-0.028265627
6	0x3e1d13a7	0.15339528
7	0xbda20be7	-0.079124264
8	0x3da98bff	0.08278655
9	0x3c433e40	0.011916697
10	0x3d3b7116	0.045762144
11	0xbde3da65	-0.1112564
12	0x3e06c04e	0.13159296
13	0x3d850250	0.06494582
14	0xbcd4e3ea	-0.025987584
15	0x3d88df50	0.066832185

decoder.MLP.L1.weight f4 [32, 16]
0	0xbe9485a2	-0.29008204
1	0x3e762518	0.24037588
2	0x3e75b9fd	0.2399673
3	0xbd976247	-0.07391792
4	0xbdfd7c46	-0.12377219
5	0x3e2e1928	0.17001784
6	0xbe28e14e	-0.16492197
7	0xbe194382	-0.14967158
8	0x3ccc8698	0.024966523
9	0xbe908475	-0.28226057
10	0x3d4a0b01	0.0493269
11	0xbdc4bc51	-0.09606231
12	0x3d8a508a	0.06753643
13	0x3d3570a6	0.044296883
14	0x3db36668	0.08759767
15	0xbddd602a	-0.108093575
16	0x3e812b90	0.25228548
17	0x3e7a827b	0.24463837
18	0x3e20fa91	0.15720583
19	0xbe5571ab	-0.20844142
20	0xbe22aa8b	-0.1588537
21	0x3e632fed	0.22186251
22	0xbdb53ca7	-0.08849459
23	0x3d0e1e9e	0.034697168
24	0x3d92f423	0.07175472
25	0xbe760eea	-0.24029127
26	0x3e88c9ce	0.26716465
27	0x3e0fb847	0.1403514
28	0x3e7eae7b	0.24871247
29	0xbe9a9f47	-0.30199644
30	0x3e2a6983	0.16641812
31	0x3edd5b5b	0.4323376
32	0x3daea7a8	0.08528072
33	0x3e7b21ed	0.2452466
34	0x3e94f1a7	0.29090616
35	0xbe29fbae	-0.16599914
36	0x3e048a2e	0.12943336
37	0x3e18a2b2	0.14905813
38	0xbe35f50b	-0.17769258
39	0xbe6716a1	-0.22567226
40	0x3ddf98d5	0.10917822
41	0xbec61f88	-0.3869593
42	0xbe286904	-0.1644631
43	0x3d00d771	0.03145546
44	0x3d284215	0.041078646
45	0x3cf95b13	0.030438935
46	0x3db91a6e	0.09038244
47	0x3e08642a	0.1331946
48	0x3d7886b7	0.06067535
49	0x3db3d8b8	0.0878157
50	0x3e15d417	0.14631687
51	0x3c1cbf5a	0.009567106
52	0xbd9f16c0	-0.07768011
53	0x3e2fcfa1	0.17169048
54	0x3d409049	0.0470126
55	0x3e1b03ff	0.15138243
56	0xbddb1043	-0.10696461
57	0xbf6c9d86	-0.9242786
58	0xbd964ffc	-0.073394746
59	0xbdbe2bc3	-0.09285691
60	0x3dfd2adb	0.1236169
61	0x3e32cd52	0.17461136
62	0xbdf57beb	-0.11986526
63	0x3ea258b0	0.31708288
64	0xbe9b0bda	-0.3028248
65	0x3e13da53	0.14438753
66	0x3e25e53b	0.16200726
67	0x3c8e728f	0.01738861
68	0xbe046440	-0.12928867
69	0xbdb69e8c	-0.08916959
70	0xbe342d8b	-0.17595498
71	0x3dd20163	0.10254171
72	0x3e1e7ca6	0.15477237
73	0xbf0de765	-0.55431205
74	0xbe4a7f8a	-0.19775215
75	0xbe62099f	-0.22073983
76	0xbe489b00	-0.19590378
77	0xbdd65d88	-0.104670584
78	0x3e548e55	0.2075742
79	0xbd914402	-0.070930496
80	0xbe09b446	-0.13447675
81	0x3e461be1	0.19346572
82	0x3daad326	0.083410546
83	0xbe075a6c	-0.13218087
84	0x3e2bd093	0.16778784
85	0xbe6f68c0	-0.23379803
86	0x3d78b413	0.060718607
87	0xbe492649	-0.19643511
88	0xbe7c4a73	-0.24637775
89	0xbe3c6f05	-0.18401726
90	0xbe07a9e0	-0.13248396
91	0xbe1058d8	-0.14096391
92	0x3e561f4e	0.2091038
93	0xbd51ba4b	-0.051203053
94	0xbcec38dd	-0.028835708
95	0x3e2c1141	0.16803457
96	0xbe956677	-0.29179737
97	0xbcaacc2a	-0.020849306
98	0x3e6ea26d	0.23304148
99	0xbda89a37	-0.08232539
100	0x3d7a059f	0.061040517
101	0xbe36db35	-0.17857058
102	0x3dc59e89	0.09649379
103	0x3e1b97ea	0.1519467
104	0xbd02fbb4	-0.031978324
105	0xbe264849	-0.16238512
106	0xbebbb5bc	-0.3666209
107	0xbd2ad317	-0.041705217
108	0xbc7b3e5e	-0.015334694
109	0x3e682b82	0.22672847
110	0x3eb1e82d	0.3474745
111	0xbe4a7d09	-0.1977426
112	0xbd42c3b7	-0.04754993
113	0x3dd2ba66	0.10289459
114	0x3e38825a	0.18018475
115	0x3d67e589	0.056615386
116	0x3c015e9a	0.00789609
117	0x3dc520da	0.096254066
118	0x3e17247e	0.14760014
119	0x3e4897b5	0.19589122
120	0x3e49c92c	0.19705647
121	0xbe8b64c8	-0.27225327
122	0xbdb53b38	-0.08849186
123	0xbd88ffd7	-0.066894226
124	0xbd07f792	-0.033195086
125	0xbdeef112	-0.11667074
126	0x3dc52973	0.096270464
127	0xbe6efd4b	-0.23338811
128	0xbd1b0815	-0.037849505
129	0xbe13b2e0	-0.14423704
130	0x3d65dcab	0.05611865
131	0xbd308412	-0.043094702
132	0x3e6bd137	0.23029028
133	0xbd9c8bfb	-0.07643887
134	0x3db8c508	0.09021956
135	0xbe2b4833	-0.1672676
136	0xbe49378f	-0.196501
137	0xbe75256b	-0.23940055
138	0x3cc5912b	0.024117073
139	0x3d193996	0.037408434
140	0x3e52432c	0.20533437
141	0x3dade009	0.08489997
142	0x3e35894d	0.17728157
143	0xbc18926c	-0.009312253
144	0xbe47c129	-0.19507279
145	0x3e30c781	0.17263605
146	0xbe2307c4	-0.15920931
147	0x3e9a34fe	0.30118555
148	0xbe2d9563	-0.16951518
149	0xbe6d746b	-0.23188941
150	0xbd9c81fc	-0.0764198
151	0x3e27626e	0.16346142
152	0xbd675f06	-0.056487106
153	0x3d72e917	0.059304323
154	0xbd7decec	-0.061993524
155	0x3e1e58a5	0.15463503
156	0x3de97ef2	0.11401166
157	0x3e230b60	0.15922308
158	0x3d0a26ff	0.033728596
159	0xbdc89fff	-0.09796142
160	0x3e46ad10	0.19401956
161	0x3dd6402d	0.10461459
162	0x3de54130	0.11194074
163	0xbe3af718	-0.18258321
164	0x3d06108a	0.032730617
165	0x3e4776a9	0.19478859
166	0xbc681181	-0.0141643295
167	0xbde6741f	-0.11252617
168	0x3ecbf1e7	0.39832994
169	0x3d93add3	0.07210889
170	0x3e3d23b6	0.18470654
171	0xbe3b2caf	-0.18278764
172	0x3dee909a	0.11648674
173	0xbea44a23	-0.32087812
174	0x3dd8b437	0.10581248
175	0x3e65d5ac	0.2244479
176	0x3c3f364b	0.011670659
177	0xbb44c69f	-0.0030025614
178	0xbe24cabc	-0.16092962
179	0x3dcf7b25	0.1013091
180	0xbd3c8583	-0.046025764
181	0xbde19d65	-0.11016349
182	0x3e170ba8	0.1475054
183	0xbd9878e1	-0.07444931
184	0x3df76b7c	0.12081048
185	0x3bdc8800	0.0067300797
186	0xbd1703d3	-0.03686888
187	0x3d964b63	0.073385976
188	0x3e58974f	0.2115147
189	0xbe2482ce	-0.16065523
190	0xbe03333b	-0.12812512
191	0x3d2774fa	0.040883042
192	0x3e1c6839	0.15274133
193	0xbe061dbc	-0.1309728
194	0x3eb285f2	0.34867817
195	0x3d98dbbb	0.07463785
196	0x3e207a62	0.15671685
197	0x3db508ac	0.08839545
198	0x3e2d95b9	0.16951646
199	0x3de4bf8c	0.11169347
200	0x3e4c84fd	0.19972606
201	0x3e963411	0.293366
202	0x3e8fefa3	0.28112516
203	0xbe00e184	-0.12586027
204	0xbd935eca	-0.07195814
205	0xbe72e413	-0.23719816
206	0xbe3a7ea6	-0.18212375
207	0x3ec879d0	0.39155436
208	0x3ed0e0f9	0.4079664
209	0x3db76f1b	0.089567386
210	0xbd969298	-0.07352179
211	0xbd25a303	-0.040438663
212	0x3dc6cb91	0.09706796
213	0x3d0c9ea0	0.034330964
214	0xbe15d513	-0.14632063
215	0xbd20660c	-0.03915982
216	0x3e88eb5a	0.2674206
217	0x3f0b5d08	0.5443883
218	0x3ed7c53e	0.4214267
219	0xbe42e6dc	-0.19033378
220	0xbdc08922	-0.09401156
221	0xbdc0876a	-0.09400828
222	0xbc24ff92	-0.010070698
223	0x3c129eae	0.008948965
224	0xbe051e06	-0.12999734
225	0x3d803450	0.06259978
226	0xbe9e5477	-0.30923817
227	0x3e365e11	0.17809321
228	0x3e33256d	0.17494746
229	0xbd739f2d	-0.059477974
230	0x3e4a63a2	0.1976457
231	0xbdb4518d	-0.08804617
232	0xbdade562	-0.08491017
233	0x3ea5a40c	0.3235172
234	0xbd7ca196	-0.061677538
235	0xbd015654	-0.03157647
236	0xbda44747	-0.080214076
237	0x3ebe6699	0.3718765
238	0x3e888053	0.26660404
239	0xbe862d6c	-0.2620653
240	0x3d2d265b	0.042272907
241	0x3e63fcd1	0.2226441
242	0x3d3d7f1a	0.04626379
243	0x3e35f8a4	0.1777063
244	0x3d90ed1c	0.07076475
245	0xbe432402	-0.19056705
246	0x3de127f8	0.109939516
247	0x3e5c3e40	0.21508121
248	0xbd6d63f5	-0.057956655
249	0x3ed1104e	0.40832752
250	0x3e38e6ed	0.18056841
251	0x3deb558e	0.11490928
252	0x3d6fd3f1	0.058551732
253	0x3e98b466	0.29825133
254	0xbe84f7f4	-0.25970423
255	0xbc620905	-0.013796096

decoder.MLP.L1.bias f4 [32]
0	0x3e60c99e	0.21951911
1	0xbe2a16d4	-0.1661027
2	0x3c2d0b01	0.010561706
3	0x3e156346	0.14588651
4	0x3e98d353	0.29848728
5	0xbe13422f	-0.14380716
6	0xbd9943bf	-0.07483625
7	0x3e23ccb0	0.15996051
8	0xbe0184b8	-0.12648284
9	0xbe35dc97	-0.1775993
10	0xbdf536f2	-0.119733706
11	0x3e807574	0.2508961
12	0x3e985cf0	0.29758406
13	0xbd9d1326	-0.07669668
14	0xbe17a0d8	-0.14807451
15	0xbc834b0d	-0.016026998
16	0x3be4fdea	0.0069882767
17	0x3de79219	0.11307163
18	0xbd8be6ac	-0.068311065
19	0x3e01ee89	0.1268865
20	0xbdbfe313	-0.09369483
21	0x3df72ad6	0.12068717
22	0x3e7c3d13	0.24632673
23	0x3dd1ab3e	0.1023774
24	0xbe360b93	-0.17777853
25	0x3ce524a5	0.027971575
26	0xbdccf45c	-0.10007545
27	0xbd7b74b7	-0.061390605
28	0xbe36b520	-0.17842531
29	0x3d40d13c	0.04707454
30	0xbe476166	-0.19470748
31	0xbdd08528	-0.101816475

decoder.MLP.L2.weight f4 [2, 32]
0	0xbe4c6fa9	-0.1996447
1	0xbd09f34a	-0.033679284
2	0xbea00e69	-0.31260994
3	0xbef3b820	-0.47601414
4	0xbed9ba0f	-0.42524764
5	0xbc0214b1	-0.0079395035
6	0xbec69f32	-0.3879333
7	0xbe8273c2	-0.2547894
8	0x3b8792f4	0.004137391
9	0xbdb309d2	-0.087421075
10	0xbcff3031	-0.03115091
11	0xbdf7a906	-0.120927855
12	0x3e24d2fe	0.16096112
13	0x3e964d81	0.29356006
14	0x3d18fed5	0.0373524
15	0x3e865580	0.26237106
16	0x3e9e1e4d	0.30882493
17	0xbde91138	-0.11380237
18	0xbcf5b473	-0.029993271
19	0x3e8fdb7b	0.28097138
20	0xbf0083c5	-0.50201064
21	0xbd815b20	-0.06316209
22	0xbdb36cde	-0.08760999
23	0x3e66060e	0.22463247
24	0xbe1637a6	-0.14669666
25	0xbd63ceb1	-0.05561704
26	0xbe8f9316	-0.28041905
27	0x3b7d3f48	0.0038642455
28	0x3e241155	0.16022237
29	0x3d307444	0.04307963
30	0xbd836f87	-0.064177565
31	0x3e19155b	0.14949553
32	0xbc092eac	-0.008372944
33	0xbecd3444	-0.40078938
34	0xbd8f03e8	-0.06983167
35	0xbe3059f3	-0.17221813
36	0xbc4ea620	-0.0126128495
37	0xbe327609	-0.1742784
38	0x3ea04387	0.3130152
39	0x3dc156b7	0.09440368
40	0x3e7a0bc4	0.2441855
41	0x3ed26733	0.4109436
42	0xbe99c01d	-0.30029383
43	0x3bc576b6	0.0060261143
44	0xbe72cd22	-0.23711064
45	0xbe7cc613	-0.24684934
46	0x3ea5a886	0.32355136
47	0x3de6fd07	0.1127873
48	0x3e02e59a	0.12782899
49	0xbe4a20f6	-0.19739136
50	0xbcd3efbb	-0.025871148
51	0x3e0b90e6	0.13629493
52	0xbda2cc72	-0.07949151
53	0xbcb8fed4	-0.022582449
54	0xbeaee43b	-0.341585
55	0x3e58877d	0.21145435
56	0xbc5efaaf	-0.013609572
57	0xbe2f6be0	-0.17130995
58	0x3c0076ad	0.0078407945
59	0x3fb5e414	1.4210229
60	0xbe9e44b3	-0.30911788
61	0xbdf3d6f0	-0.119062304
62	0xbdc41da9	-0.0957597
63	0x3e29ff32	0.16601256

decoder.MLP.L2.bias f4 [2]
0	0x3cd22ee3	0.025657123
1	0x3daa66fe	0.083204255

condition.embed.weight f4 [16, 6]
0	0xbd4bcb8e	-0.04975467
1	0xbddf10a2	-0.10891844
2	0xbf1722c3	-0.5903742
3	0x3ebe6cbd	0.37192336
4	0x3e297099	0.16546859
5	0x3ea7acc5	0.32749
6	0x3c598a92	0.013277667
7	0x3e838e53	0.25694522
8	0xbce5d4df	-0.028055606
9	0x3f02f37b	0.5115277
10	0x3cddd6b7	0.027079923
11	0xbdf5ad08	-0.11995894
12	0x3d4413e5	0.047870535
13	0x3e9c1e04	0.3049165
14	0x3e54b62a	0.20772615
15	0xbde548c3	-0.11195519
16	0xbe8bf27a	-0.27333432
17	0xbae72f13	-0.001763793
18	0xbce7e564	-0.028307624
19	0x3e27ee58	0.16399515
20	0xbeafa4a4	-0.34305298
21	0xbe86fa67	-0.26362917
22	0xbe5e1066	-0.21685943
23	0xbd882d44	-0.06649259
24	0xbd80a070	-0.06280601
25	0x3b98d962	0.004664586
26	0x3c4ae7a4	0.012384329
27	0xbd0c2e6c	-0.03422396
28	0xbe8ac708	-0.27104974
29	0xbe39438e	-0.18092176
30	0x3c89f7b3	0.016841745
31	0xbdc491b0	-0.095981
32	0x3abd754b	0.0014454512
33	0xbec58cec	-0.38584077
34	0xbe9a3731	-0.30120233
35	0x3dcf95d3	0.101359986
36	0xbcfa8cad	-0.030584658
37	0x3d00dda7	0.031461384
38	0xbd05c0df	-0.03265464
39	0xbda03b90	-0.07823861
40	0xbf0ab2bf	-0.54178995
41	0x3e942f60	0.28942394
42	0x3dd1496b	0.102190815
43	0x3cac9c9c	0.02107077
44	0x3f2a327e	0.66483295
45	0xbe3bc941	-0.18338491
46	0xbe8f79a0	-0.2802248
47	0xbd781992	-0.06057126
48	0xbb08a6da	-0.0020851404
49	0xbd831280	-0.06400013
50	0x3b16d4f6	0.0023015118
51	0xbf00588c	-0.5013511
52	0x3e3acc35	0.18241961
53	0xbeb544ac	-0.35403955
54	0x3cf16913	0.029469049
55	0x3cd34dc7	0.025793923
56	0x3ed50b46	0.41610163
57	0xbdd74546	-0.1051126
58	0xbe94b759	-0.29046133
59	0x3e5815e8	0.21102107
60	0xbbcfc326	-0.006340402
61	0x3dc0b460	0.09409404
62	0x3e13f981	0.14450647
63	0x3f00ea6c	0.503577
64	0x3e337338	0.17524421
65	0x3eaae0e1	0.33374694
66	0xbdf19142	-0.11795284
67	0x3d42915f	0.047501918
68	0xbf40cce6	-0.7531265
69	0xbe0f98e7	-0.14023171
70	0x3e10a09d	0.14123769
71	0x3e3c2b09	0.18375792
72	0x3c4c2f05	0.012462382
73	0xbb6a2a89	-0.003573092
74	0x3e52a033	0.20568924
75	0x3de9f319	0.1142332
76	0x3e905cef	0.28195903
77	0x3d22c973	0.0397429
78	0x3db42948	0.08796936
79	0xbdb85d9f	-0.09002232
80	0xbe0a2c2c	-0.13493413
81	0x3d0e79bd	0.034784067
82	0x3e96d9a3	0.2946292
83	0x3e2ac292	0.16675785
84	0xbd00a5d7	-0.031408157
85	0x3acb1430	0.0015493687
86	0xbe8d8257	-0.27638504
87	0xbe858926	-0.26081198
88	0xbe9ccddc	-0.30625808
89	0x3de55f90	0.11199868
90	0xbd9766b5	-0.07392637
91	0x3d900ccf	0.07033693
92	0xbec724b9	-0.38895205
93	0x3eee305c	0.4652127
94	0xbe7a1605	-0.24422462
95	0x3d870a87	0.06593805

condition.embed.bias f4 [16]
0	0xbe445d5f	-0.19176243
1	0x3ec7c426	0.39016837
2	0x3dd3b98c	0.10338125
3	0x3e348fef	0.17633031
4	0xbe5e67bb	-0.21719258
5	0x3d9b963e	0.07597016
6	0x3e15d266	0.14631042
7	0xbdbb5ed5	-0.09148947
8	0xbebf9b9a	-0.37423402
9	0x3ee376ae	0.44426483
10	0x3e73a5b9	0.23793687
11	0xbe883041	-0.26599315
12	0xbd117ed3	-0.03552134
13	0x3ebf81db	0.3740376
14	0xbc04a334	-0.008095551
15	0x3eecd77f	0.4625816
