Learning/exp/4.25_ValueNet_sim_success_2/best.pth (torch, 276003 bytes, 144 tensors)

condition.embed.weight f4 [16, 6]
0	0xbe33638a	-0.1751844
1	0x3e83cd64	0.25742638
2	0x3e153025	0.14569147
3	0x3b7607b5	0.0037541215
4	0x3e7a5bfb	0.2444915
5	0x3e30f37c	0.17280382
6	0xbcf84d52	-0.030310307
7	0xbdd8e2ac	-0.10590109
8	0xbc0c25c9	-0.008553931
9	0xbb3be9f3	-0.002867338
10	0xbe715f91	-0.23571612
11	0x3e2d50cd	0.16925354
12	0xbd786c63	-0.06065024
13	0x3dddf9a4	0.10838631
14	0x3e0f468b	0.13991754
15	0xbe8d2e9a	-0.27574617
16	0xbe7b2310	-0.24525094
17	0x3e667816	0.22506747
18	0xbe95c952	-0.29255158
19	0xbe338642	-0.17531684
20	0x3e4bc195	0.19898064
21	0xbd2df6cd	-0.042471696
22	0x3daf9ae0	0.08574462
23	0x3d3ba981	0.04581595
24	0xbddc6d06	-0.10762982
25	0xbd99d36d	-0.075110294
26	0x3db112e8	0.08646184
27	0x3ea200d0	0.31641245
28	0x3e44549f	0.19172905
29	0xbe61c07f	-0.22046088
30	0xbc7bd053	-0.015369493
31	0xbdbee15a	-0.09320326
32	0xbd4f5b34	-0.050624087
33	0x3de65691	0.1124698
34	0x3f1ce72d	0.61290246
35	0x3d5a1491	0.05324227
36	0xbc1bb976	-0.009504667
37	0xbd4bf58a	-0.04979471
38	0xbbc864fa	-0.006115553
39	0xbe8ea702	-0.27861792
40	0xbeb21d0d	-0.3478779
41	0xbe2062d9	-0.15662707
42	0x3dcf5773	0.101241015
43	0x3c2a5cc9	0.010398098
44	0x3dea751b	0.11448117
45	0x3e922043	0.2854024
46	0x3e3a1b93	0.18174581
47	0xbe95646c	-0.29178178
48	0x3e30ce20	0.1726613
49	0x3d1d078f	0.038337287
50	0xbd07d0ba	-0.03315804
51	0xbdda4331	-0.10657347
52	0xbdee8b53	-0.11647668
53	0xbe6f2cce	-0.23356935
54	0x3e0e7e4b	0.13915364
55	0x3c58cfc2	0.013233127
56	0xbdd9ccbf	-0.10634755
57	0x3cf29b58	0.02961509
58	0x3de546c9	0.11195142
59	0x3e4ff74a	0.20309177
60	0xbd8e05f4	-0.06934729
61	0x3e333988	0.17502415
62	0x3e4a0bdb	0.19731085
63	0xbeb659cc	-0.35615385
64	0xbe0a6e38	-0.13518608
65	0x3ed530d0	0.41638803
66	0xbdd156cf	-0.102216356
67	0x3ccf0c10	0.025274307
68	0xbe861b8b	-0.2619289
69	0x3dbcb105	0.09213451
70	0xbede4096	-0.4340865
71	0x3e8d6c89	0.27621868
72	0xbe6f1603	-0.2334824
73	0x3ce357dc	0.027751856
74	0x3e8716b5	0.26384512
75	0xbe15f996	-0.1464599
76	0x3e48a7ce	0.19595262
77	0xbe68ebbc	-0.22746176
78	0xbea318d6	-0.31854886
79	0x3e92457a	0.2856863
80	0x3e9763fd	0.29568473
81	0xbd1a3115	-0.037644465
82	0x3e92715d	0.28602114
83	0xbd9b7ba2	-0.075919405
84	0x3e69bdbd	0.22826286
85	0x3ea23951	0.31684354
86	0x3d5410bb	0.051773768
87	0xbebf928b	-0.3741649
88	0x3d85b666	0.0652893
89	0xbba8e25f	-0.0051539387
90	0xbeb9e36c	-0.36306322
91	0x3e86e8e0	0.26349545
92	0x3e02038c	0.12696666
93	0x3e33b62b	0.1754996
94	0x3df48b96	0.119406864
95	0xbe45bc14	-0.19310027

condition.embed.bias f4 [16]
0	0xbeb18a45	-0.34675804
1	0xbf1dc4de	-0.6162852
2	0xbdfff968	-0.12498742
3	0x3d097c75	0.033565957
4	0x3d2c6f6b	0.042098444
5	0x3e7e47d6	0.2483209
6	0x3e5c2c0f	0.21501182
7	0x3db6f222	0.08932902
8	0xbebdea79	-0.3709295
9	0x3dbe72de	0.09299253
10	0xbdf368a5	-0.11885194
11	0xbe66e014	-0.22546417
12	0xbd76922e	-0.060198
13	0xbe6db210	-0.23212457
14	0x3e17b1d2	0.14813927
15	0xbe419b46	-0.18906888

condition.embed_goal.weight f4 [16, 3]
0	0xbe3dbb06	-0.18528375
1	0xbcdbe3f6	-0.026842099
2	0xbec37704	-0.3817674
3	0x3db0ef97	0.08639448
4	0xbed3cd6f	-0.4136767
5	0xbe61896e	-0.22025082
6	0xbe8b6280	-0.27223587
7	0xbebbba0d	-0.36665383
8	0x3ea0bd5d	0.31394473
9	0xbda0eca6	-0.07857637
10	0x3d294152	0.04132206
11	0xbdbd485b	-0.09242316
12	0xbd70ff3b	-0.058837157
13	0x3edda98e	0.43293422
14	0x3f0417b8	0.5159869
15	0xbef05a6b	-0.46943983
16	0x3e215cd0	0.15758061
17	0x3eece559	0.46268728
18	0xbe53c345	-0.20679958
19	0x3d70aa6b	0.058756273
20	0xbed2dfe7	-0.4118645
21	0x3d9ce843	0.07661488
22	0x3df06205	0.11737446
23	0xbeb1a966	-0.34699553
24	0x372272ae	9.682653e-06
25	0xb721de1f	-9.648064e-06
26	0xbe95d0f8	-0.29260993
27	0x3ecc90e6	0.399543
28	0x3d8ad9db	0.06779834
29	0xbf210450	-0.62897205
30	0xbe32dec0	-0.17467785
31	0x3e835702	0.2565232
32	0xbe75f289	-0.24018301
33	0x3edc361f	0.4301004
34	0x3eb9cc7a	0.36288816
35	0x3e6a7248	0.22895157
36	0xbe36fccd	-0.17869873
37	0xbef9e082	-0.48804098
38	0xbdf56e02	-0.11983873
39	0xbe7cbaf2	-0.24680689
40	0x3e68e348	0.22742951
41	0xbf117ed7	-0.5683417
42	0xbe9fbfc9	-0.31201008
43	0xbe1e10c4	-0.15436083
44	0xbe9a648c	-0.30154836
45	0xbee66cc9	-0.4500487
46	0x3df2c524	0.11854008
47	0x3ef0751f	0.46964356

condition.embed_goal.bias f4 [16]
0	0xbedf55d1	-0.4362016
1	0xbdbd42ad	-0.09241233
2	0xbefa0a14	-0.48835814
3	0x3eaa0cba	0.33212835
4	0xbec10b67	-0.37704012
5	0xbed61f76	-0.41820878
6	0x3ea7c4dd	0.32767382
7	0x3ee92f09	0.45543697
8	0xbeeb0e15	-0.4590918
9	0xbf2829c7	-0.6568875
10	0x3ed662ab	0.41872153
11	0xbf05a9bd	-0.52212125
12	0xbdd5685e	-0.10420297
13	0xbe88d67b	-0.26726136
14	0x3eafd39e	0.3434114
15	0xbaab8301	-0.0013085307

condition.ln.weight f4 [16]
0	0x3f7a99ed	0.9789112
1	0x3f865f0b	1.0497755
2	0x3f71b18b	0.94411534
3	0x3f727385	0.9470752
4	0x3f83004d	1.0234467
5	0x3f85ae72	1.0443861
6	0x3f806c8c	1.0033126
7	0x3f728bee	0.94744766
8	0x3f8877c1	1.0661546
9	0x3f757154	0.9587605
10	0x3f5a3ef3	0.852523
11	0x3f7abc4d	0.97943574
12	0x3f8adf49	1.0849391
13	0x3f74fa5e	0.9569453
14	0x3f6d0fa2	0.9260198
15	0x3f747377	0.95488685

condition.ln.bias f4 [16]
0	0xbd975a85	-0.07390312
1	0xbe1b9a0c	-0.15195483
2	0xbd91abb5	-0.07112829
3	0xbe0dddb2	-0.13854101
4	0x3e39f525	0.18159921
5	0xbdabba18	-0.08385104
6	0x3daeff54	0.08544794
7	0x3de16439	0.11005444
8	0xbd94adac	-0.07259688
9	0x3d8b5989	0.06804187
10	0x3dd3c97e	0.10341166
11	0x3db3c72e	0.08778225
12	0xbdb9da4a	-0.090748385
13	0x3d8f22d5	0.069890656
14	0x3da0681f	0.078323595
15	0x3daa962c	0.08329424

condition.layers.0.self_attn.W_Q.fc1.weight f4 [16, 16]
0	0xbe7c8969	-0.24661793
1	0x3e401d58	0.18761194
2	0xbe3191d2	-0.17340782
3	0x3de6c60e	0.11268245
4	0xbd373db6	-0.044736587
5	0x3e22613b	0.15857403
6	0xbe48f26c	-0.19623727
7	0xbe7ba448	-0.24574387
8	0xbe77faea	-0.2421681
9	0x3e4aa5c8	0.19789803
10	0x3e7e081a	0.24807778
11	0xbe36b021	-0.17840625
12	0xbe5b726e	-0.2143037
13	0x3e208f1d	0.15679593
14	0x3cb1fe24	0.021727629
15	0xbe46aee0	-0.19402647
16	0xbdafa8d1	-0.08577121
17	0xbde6d1a5	-0.11270455
18	0xbe3127d7	-0.17300354
19	0xbe073e44	-0.13207346
20	0x3e230fb1	0.15923955
21	0xbe5c92a9	-0.21540321
22	0x3e9872f5	0.29775205
23	0xbc008e91	-0.0078464905
24	0xbe89367a	-0.26799375
25	0x3c102b04	0.008799318
26	0x3d8701c7	0.06592136
27	0xbdf69a25	-0.120411195
28	0x3e150563	0.14552836
29	0xbdcc2ba5	-0.09969262
30	0xbe978d55	-0.29600015
31	0x3e3cce2b	0.18438022
32	0x3c91889a	0.017765332
33	0xbe32716e	-0.17426082
34	0x3e7f938a	0.24958625
35	0xbd8f46b9	-0.06995911
36	0x3dc1a83b	0.094559155
37	0x3e3f082e	0.18655464
38	0x3c3d1587	0.011540777
39	0xbe2335e1	-0.15938522
40	0x3e3de6dc	0.18545097
41	0x3e339f6b	0.17541282
42	0x3dc69cfb	0.096979104
43	0xbe1f5e91	-0.15563418
44	0x3e67fe3c	0.22655576
45	0xbe126bde	-0.1429896
46	0xbe64f1f6	-0.22357926
47	0xbe372cdb	-0.17888205
48	0xbe195805	-0.14974983
49	0x3e141c4b	0.14463918
50	0x3e0d4b6c	0.13798302
51	0x3d286de4	0.041120425
52	0x3da178a5	0.07884339
53	0x3e5c93bd	0.21540733
54	0x3ce5e3cf	0.02806273
55	0x3e27ae79	0.1637515
56	0x3e9529f4	0.2913357
57	0x3da4db47	0.08049636
58	0xbd85d353	-0.065344475
59	0xbe4663a8	-0.19373953
60	0x3d580ccf	0.05274659
61	0xbe0594b3	-0.13045006
62	0x3e3a36ad	0.1818492
63	0xbe4151e9	-0.18878902
64	0x3e276565	0.16347273
65	0xbd8752ea	-0.066076115
66	0x3df7151a	0.12064572
67	0x3e2b5d34	0.16734773
68	0xbd838ed8	-0.0642373
69	0xbe0088bb	-0.12552159
70	0xbe387adb	-0.18015616
71	0x3dca879d	0.098891474
72	0xbe0f4a08	-0.13993084
73	0x3df3baad	0.1190084
74	0x3e37f5de	0.17964885
75	0xbe60f2b7	-0.21967588
76	0xbe184e43	-0.14873604
77	0xbe1d7ca2	-0.15379575
78	0xbd6e4ee8	-0.05818072
79	0xbe4cc563	-0.19997172
80	0x3e13a2bc	0.14417547
81	0x3e3a2d55	0.18181355
82	0xbe234c61	-0.15947105
83	0x3d4f587c	0.050621495
84	0x3ceb828f	0.028748779
85	0x3b1f2e14	0.002428894
86	0x3cda45ad	0.026644552
87	0xbda1ad9c	-0.078944415
88	0x3de860ea	0.1134661
89	0x3e65d4f3	0.22444515
90	0x3ca06db9	0.01958357
91	0x3df1c750	0.11805594
92	0xbe8454b0	-0.2584586
93	0xbbcb5c9a	-0.0062061073
94	0xbdfca1c8	-0.12335545
95	0x3e620e22	0.22075704
96	0xbe9a3107	-0.3011553
97	0xbe37a703	-0.17934804
98	0xbd401278	-0.046892613
99	0xbdfece1c	-0.12441656
100	0x3e104d5b	0.14092009
101	0x3e0bcfbd	0.13653465
102	0xbd85f8e3	-0.06541612
103	0xbc8d30c0	-0.01723516
104	0x3d01a412	0.03165061
105	0xbe4bcef7	-0.1990317
106	0xbd926850	-0.07148802
107	0xbe3da2b6	-0.185191
108	0xbd7b7f73	-0.061400842
109	0x3db0d2e0	0.08633971
110	0xbd3a88e7	-0.045540716
111	0xbcd92ba5	-0.02651007
112	0x3d490a72	0.049082227
113	0xbe5dcf55	-0.21661122
114	0x3d94d943	0.07268002
115	0x3b8e9415	0.004351149
116	0xbdee29d6	-0.11629073
117	0x3d7fa76a	0.062415518
118	0xbc0c5a14	-0.008566398
119	0xbde5eeb5	-0.112271704
120	0xbc454f77	-0.012042872
121	0x3c381472	0.011235343
122	0x3d799932	0.060937114
123	0x3e01feb9	0.12694825
124	0x3c3fbab6	0.01170223
125	0x3d5555ab	0.052083652
126	0x3e69d425	0.22834833
127	0xbe905186	-0.28187197
128	0x3d767b11	0.06017596
129	0x3c60ae0d	0.013713372
130	0x3e8c3b0f	0.27388808
131	0xbd72849a	-0.05920849
132	0xbe30f4cc	-0.17280883
133	0xbe69b7be	-0.22823998
134	0x3db205b2	0.086924925
135	0xbe2e4499	-0.17018355
136	0x3d01af26	0.031661175
137	0x3d388bbf	0.045055147
138	0xbe547486	-0.20747575
139	0xbe2c8df5	-0.16851027
140	0x3d3f172f	0.04665297
141	0xbdc899ae	-0.09794937
142	0x3e2b9230	0.16754985
143	0x3e926143	0.2858983
144	0x3a943e69	0.0011310104
145	0x3e2a3ad5	0.16624005
146	0x3ded03e0	0.11573005
147	0xbdefa9ae	-0.11702286
148	0xbe5f8cdf	-0.21831082
149	0xbe607d8a	-0.2192289
150	0x3de74d95	0.112940945
151	0x3dc847a1	0.09779287
152	0xbda09444	-0.078407794
153	0xbc561349	-0.013066121
154	0x3e7268cc	0.2367279
155	0xbe177b2a	-0.14793077
156	0x3ce6147c	0.02808594
157	0x3e363d3d	0.17796798
158	0xbcb84a04	-0.02249623
159	0xbe306f4c	-0.17229956
160	0xbe82a15d	-0.25513735
161	0x3e068fac	0.13140744
162	0xbe1b590b	-0.15170686
163	0x3db078f0	0.08616817
164	0xbd316479	-0.04330871
165	0x3d326233	0.04355068
166	0xbbc5e4f8	-0.006039258
167	0x3e5450cb	0.20733945
168	0x3d559ac1	0.052149538
169	0xbb5b28e7	-0.0033441128
170	0xbeb13113	-0.34607753
171	0xbcc97dd4	-0.024596132
172	0xbe0307e9	-0.12795986
173	0x3e963c46	0.2934286
174	0xbe0266d6	-0.12734541
175	0xbd6e2511	-0.058140818
176	0x3d52387c	0.0513234
177	0xbd8535a6	-0.06504373
178	0x3e051e3f	0.12999819
179	0x3e56abb1	0.20963933
180	0x3e7d5a2e	0.24741432
181	0xbdf6fc33	-0.12059822
182	0xbe213a79	-0.15744962
183	0xbe6df3da	-0.23237553
184	0x3e6ef5e9	0.23335995
185	0x3e8f747c	0.28018558
186	0x3e3cb7bb	0.18429463
187	0x3e9fbf85	0.31200805
188	0xbe80c381	-0.25149158
189	0xbe672028	-0.2257086
190	0x3e649662	0.22322991
191	0x3e639b02	0.222271
192	0xbba34f58	-0.0049838237
193	0xbe581d88	-0.21105015
194	0xbd7fddb6	-0.0624673
195	0xbde9a2c6	-0.11408
196	0xbe313da4	-0.1730867
197	0x3df48111	0.1193868
198	0x3df48fc5	0.11941484
199	0x3e204b8b	0.15653817
200	0x3db4a18f	0.08819877
201	0x3c80a0cb	0.015701672
202	0x3e6fd150	0.2341969
203	0x3b9ff796	0.0048818095
204	0xbe1ac946	-0.15115842
205	0x3e19f986	0.15036592
206	0x3e6c50b8	0.23077667
207	0xbe2ccc75	-0.16874869
208	0x3dcba569	0.09943659
209	0x3e12d311	0.14338328
210	0x3deb6f82	0.11495878
211	0xbcda0996	-0.026615899
212	0x3e8040db	0.2504948
213	0xbb8b219d	-0.0042459504
214	0x3e8c4c3c	0.27401912
215	0xbdd2f6e0	-0.10300994
216	0xba86e45a	-0.0010291443
217	0x3d135c5d	0.035976756
218	0xbe1b320e	-0.15155813
219	0xbdfac894	-0.122452885
220	0xbdbdd292	-0.09268679
221	0x3e67a846	0.22622785
222	0xbe28455f	-0.16432713
223	0xbe22ab19	-0.15885581
224	0xbc1142da	-0.008866036
225	0x3e2a54a5	0.16633852
226	0x3e052310	0.13001657
227	0xbdbcaa87	-0.09212213
228	0xbe652b97	-0.2237991
229	0xbe0a58ba	-0.13510409
230	0x3e6ce2e6	0.2313343
231	0x3e288b76	0.1645945
232	0x3de37ea9	0.11108143
233	0xbc8fce6b	-0.017554482
234	0x3d52f9dc	0.051507816
235	0xbe5f1ed5	-0.21789105
236	0x3e2c0571	0.1679895
237	0xbdc87eb6	-0.09789793
238	0x3e9d8bb5	0.3077065
239	0xbe16c9d1	-0.14725424
240	0x3e0ea8f8	0.13931644
241	0x3e32dcfb	0.1746711
242	0x3e3706c7	0.17873679
243	0x3e92e076	0.28686875
244	0x3e58ce15	0.21172364
245	0xbe105c94	-0.14097816
246	0x3cc8f5ed	0.024531329
247	0xbe52bf89	-0.20580877
248	0x3cda5fd0	0.026657015
249	0x3e56039d	0.20899816
250	0xbe8884d0	-0.26663828
251	0x3e87c325	0.2651607
252	0x3d8b96be	0.06815861
253	0x3e0c6e75	0.13714011
254	0xbe812360	-0.252223
255	0xbd180a57	-0.037119236

condition.layers.0.self_attn.W_K.fc1.weight f4 [16, 16]
0	0x3e916050	0.28393793
1	0xbe3c812f	-0.18408655
2	0xbd12a3e3	-0.035800826
3	0x3d1e83cd	0.038699914
4	0xbd9a1a5d	-0.0752456
5	0x3c21e77d	0.009881851
6	0x3d715809	0.058921847
7	0x3e573759	0.21017207
8	0xbdb7a6e8	-0.08967382
9	0x3dcf3b47	0.10118728
10	0x3e3b479a	0.18289033
11	0x3e21be27	0.15795194
12	0xbd8861e1	-0.06659294
13	0x3e284c28	0.16435301
14	0xbdc19288	-0.09451777
15	0xbe67b9a1	-0.22629406
16	0xbe139c62	-0.14415124
17	0x3dc914b8	0.09818405
18	0x3da62b58	0.08113736
19	0xbdfe752b	-0.12424692
20	0xbe953455	-0.2914149
21	0xbd5c5d94	-0.05380018
22	0x3e0beea0	0.13665247
23	0xbc3245ce	-0.010880901
24	0x3c51dffa	0.012809748
25	0xbe0b0a2c	-0.13578099
26	0x3dcddbae	0.10051666
27	0x3e89031d	0.26760188
28	0x3e0d2fb5	0.1378773
29	0x3e5d6ee1	0.21624328
30	0x3de9aabb	0.114095174
31	0x3dac723d	0.08420227
32	0x3d50611a	0.050873853
33	0x3e4608bd	0.19339271
34	0x3dff0975	0.12452976
35	0x3e162171	0.14661194
36	0xbe426f99	-0.18987884
37	0xbdd0b910	-0.10191548
38	0x3e4164f5	0.18886168
39	0x3e2edfc7	0.17077552
40	0xbe4d8f00	-0.20074081
41	0xbd391afb	-0.045191746
42	0x3e37f8b9	0.17965974
43	0x3dc9c703	0.098524116
44	0xbe339aa5	-0.17539461
45	0x3cc85b1c	0.024457507
46	0xbca5c87c	-0.0202372
47	0x3e3cf56c	0.18452996
48	0x3db2936e	0.08719526
49	0x3e615f4b	0.22009008
50	0x3dc435de	0.09580587
51	0x3d61d755	0.055136997
52	0xbe0d5c51	-0.13804747
53	0x3e70e29c	0.23523945
54	0xbe2c6ab8	-0.16837585
55	0xbddcbb33	-0.10777893
56	0x3d0991d7	0.03358635
57	0xbe07cf96	-0.13262782
58	0xbe803cb1	-0.25046304
59	0xbeafc594	-0.34330428
60	0xbde496fd	-0.11161611
61	0x3e58d1ce	0.21173784
62	0xbdd71f00	-0.1050396
63	0xbdd9f2f9	-0.106420465
64	0xbd91050c	-0.07081041
65	0xbe36280a	-0.17788711
66	0xbe220bf3	-0.15824871
67	0x3dd55dee	0.10418306
68	0xbdb7437d	-0.08948419
69	0x3e7e670f	0.24844001
70	0x3e1af208	0.1513139
71	0xbe5aee1d	-0.21379896
72	0xbc08fca0	-0.008361012
73	0xbcc3a81f	-0.023883877
74	0xbdb8ce8d	-0.090237714
75	0xbe9dc0a9	-0.3081105
76	0x3c9e7125	0.01934106
77	0x3e287f40	0.16454792
78	0xbe1dd503	-0.15413289
79	0xbdda1ec7	-0.106504016
80	0xbe2baff6	-0.16766343
81	0xbe78e012	-0.24304226
82	0x3e8ac394	0.2710234
83	0x3e254362	0.16138986
84	0xbd4999f7	-0.049219098
85	0x3e231484	0.15925795
86	0xbcbba305	-0.022904882
87	0xbe8b6531	-0.2722564
88	0xbd577c6e	-0.0526089
89	0x3dc9a1c4	0.098453075
90	0x3e1d7d6d	0.15379877
91	0x3d4acc09	0.04951099
92	0x3e27a61e	0.16371962
93	0x3e2c0f8c	0.16802806
94	0x3e658455	0.22413762
95	0x3e27dccf	0.16392826
96	0xbbea845a	-0.007156891
97	0x3e83565f	0.25651833
98	0x3b40b3a2	0.0029403944
99	0x3daffa66	0.085926816
100	0x3e5e9240	0.21735477
101	0x3d749006	0.059707664
102	0xbdef101c	-0.116729945
103	0x3d449899	0.04799709
104	0xbc1e8ac3	-0.009676638
105	0x3b47c50a	0.0030482435
106	0xbe7ff279	-0.2499484
107	0x3d844be3	0.06459787
108	0x3c9201cd	0.017823124
109	0xbe2cce3b	-0.16875546
110	0x3df5954a	0.11991365
111	0x3e877bd3	0.26461658
112	0x3e6c8238	0.2309655
113	0x3b82edf5	0.003995652
114	0x3d2da30c	0.04239182
115	0x3e82f2ad	0.25575772
116	0xbe2a4f4c	-0.16631812
117	0x3e767a2b	0.24070041
118	0xbd00b087	-0.03141835
119	0xbd92a17f	-0.07159709
120	0xbd9ba5c5	-0.075999774
121	0x3d3ec8ef	0.046578344
122	0xbc460033	-0.012085008
123	0x3d8d0a49	0.06886727
124	0xbdd5fd19	-0.10448665
125	0xbe5a7b2a	-0.21336046
126	0xbd8fe134	-0.07025376
127	0xbe1c9c1a	-0.15293923
128	0xbe812859	-0.25226095
129	0xbe79eba2	-0.24406293
130	0xbe642b20	-0.22282076
131	0x3e70719e	0.23480842
132	0x3db7b583	0.089701675
133	0x3c1fc4e8	0.009751536
134	0x3c730ea6	0.014835035
135	0x3e683b21	0.22678806
136	0xbe4851c4	-0.19562441
137	0xbe38dd6b	-0.18053214
138	0xbd69b9c5	-0.05706193
139	0x3dda4c9c	0.10659143
140	0x3e19a2d2	0.15003517
141	0xbd7fe6d8	-0.06247601
142	0x3e4ecccd	0.20195313
143	0xbe3c4f12	-0.18389538
144	0xbe2bc3ea	-0.16773954
145	0x3dd3c409	0.10340125
146	0x3d90369e	0.070416674
147	0x3dddec5f	0.108361
148	0x3e39e00d	0.18151875
149	0x3dd586db	0.10426112
150	0x3e67d354	0.22639209
151	0x3de75a9e	0.11296581
152	0xbe0aa48b	-0.1353933
153	0x3e679563	0.2261558
154	0xbe972279	-0.29518488
155	0x3e248a28	0.16068327
156	0xbe11de8c	-0.14245051
157	0x3e431126	0.1904951
158	0xbe290784	-0.16506773
159	0xbe17252a	-0.1476027
160	0xbe2a112e	-0.16608116
161	0xbdb5792a	-0.08861001
162	0x3a90258b	0.0010997517
163	0xbe8d8cb0	-0.276464
164	0xbb8713b9	-0.004122224
165	0xbdd95e99	-0.10613746
166	0x3e570b94	0.2100051
167	0x3e705355	0.23469289
168	0xbe8901cf	-0.26759192
169	0x3d8aca48	0.06776863
170	0x3bc0f6ee	0.0058888113
171	0xbce50baf	-0.027959673
172	0x3dc5f81b	0.09666463
173	0xbe0d9ab0	-0.1382854
174	0xbe312381	-0.172987
175	0xbb9cfeac	-0.0047911014
176	0xbe5089ac	-0.20365018
177	0x3cdb8c49	0.026800292
178	0x3e32b3eb	0.17451446
179	0xbe246ed7	-0.16057907
180	0x3df208c2	0.11818077
181	0x3e3f7671	0.18697526
182	0x3e5625c8	0.2091285
183	0xbacdb0f6	-0.0015692997
184	0x3d7ca732	0.061682887
185	0x3cdc5dc8	0.026900187
186	0xbe26a70d	-0.16274662
187	0xbe2a493f	-0.16629504
188	0x3e725352	0.23664597
189	0x3e2e305c	0.17010635
190	0xbc9443d7	-0.018098755
191	0x3cc041d4	0.02346889
192	0xbe4e2165	-0.20129927
193	0xbe23f7f6	-0.16012558
194	0x3b4b962f	0.0031064858
195	0xbc2a9d0a	-0.010413418
196	0x3d249410	0.040180266
197	0x3e3ca94c	0.18423957
198	0xbe4a890a	-0.19778839
199	0x3d94c70e	0.07264529
200	0xbe79ca30	-0.24393535
201	0x3c69723c	0.014248427
202	0xbe8d45bd	-0.2759227
203	0xbe13aebb	-0.14422123
204	0xbe238254	-0.15967685
205	0xbe2364fe	-0.15956494
206	0xbd70aeb3	-0.058760356
207	0xbd85af5e	-0.06527589
208	0xbd03f11c	-0.03221236
209	0xbd50aa2d	-0.050943542
210	0x3d8d301c	0.06893942
211	0xbdaf6df0	-0.08565891
212	0x3e3723c1	0.17884733
213	0x3cdd3a87	0.027005447
214	0x3dea90b6	0.11453383
215	0xbe0a1a59	-0.13486613
216	0x3d420339	0.047366355
217	0xbd9bbbf9	-0.07604212
218	0x3e9a6606	0.30155963
219	0x3d8255e2	0.06364037
220	0xbe584179	-0.21118726
221	0xbe18dca4	-0.14927918
222	0x3e929b84	0.28634274
223	0x3dc46626	0.09589796
224	0x3d06714d	0.032822896
225	0xbe254b21	-0.1614194
226	0xbbd4799d	-0.006484224
227	0x3da063e9	0.07831556
228	0xbe452d56	-0.19255576
229	0x3dd5d016	0.1044008
230	0xbe6ea5b0	-0.23305392
231	0x3d87a359	0.06622953
232	0xbde12b66	-0.10994606
233	0x3da0ecd3	0.07857671
234	0x3c9287b1	0.017886968
235	0x3b8bed2c	0.0042702165
236	0x3adf7e12	0.0017051122
237	0xbe0b1f53	-0.13586168
238	0xbd272ce3	-0.04081429
239	0x3d4c860b	0.04993252
240	0x3d56ffe4	0.05249013
241	0x3e2e7f64	0.17040783
242	0xbb36ff49	-0.0027923158
243	0x3c26ea36	0.010187676
244	0xbe96d0d8	-0.2945621
245	0xbe88f735	-0.26751104
246	0x3d04bed2	0.032408543
247	0x3c4cdd63	0.012503955
248	0x3da0d31d	0.07852767
249	0xbd50f543	-0.05101515
250	0x3e8c60e3	0.2741767
251	0xbe32cc66	-0.17460784
252	0xbe0a0677	-0.13479029
253	0xbe7064c0	-0.23475933
254	0x3e9ece3d	0.31016722
255	0xbe193d0a	-0.14964691

condition.layers.0.self_attn.W_V.fc1.weight f4 [16, 16]
0	0x3df7be24	0.12096813
1	0x3e9999d3	0.3000017
2	0x3d27cf5e	0.040969245
3	0xbdf1c65d	-0.11805413
4	0x3e57330c	0.21015567
5	0x3cde433c	0.02713167
6	0x3d859c29	0.06523926
7	0xbe8d43f6	-0.27590913
8	0x3de6bc4e	0.11266385
9	0x3da3781b	0.07981893
10	0xbde173a4	-0.11008385
11	0xbe5f36ce	-0.2179825
12	0x3df25409	0.11832435
13	0x3d0e951c	0.03481017
14	0xbb63631f	-0.0034696532
15	0xbe9616ef	-0.29314372
16	0x3e1aeb81	0.151289
17	0x3e44c37c	0.19215196
18	0xbd90907b	-0.070588075
19	0x3d9fddd9	0.07805986
20	0xbccc737e	-0.024957415
21	0x3e6399bb	0.22226612
22	0xbd969b90	-0.0735389
23	0x3e329700	0.17440414
24	0x3cecae47	0.028891696
25	0xbe80cac8	-0.2515471
26	0x3e2eca49	0.17069353
27	0xbd1ae599	-0.037816618
28	0x3e83144b	0.2560142
29	0xbd0d5936	-0.034508906
30	0x3cdb6d13	0.02678541
31	0x3ca1a68b	0.019732734
32	0xbe2f1158	-0.1709646
33	0x3d57c227	0.052675392
34	0x3d33ea7b	0.04392479
35	0xbe538767	-0.2065712
36	0xbe79cf48	-0.24395478
37	0xbd5883a4	-0.052859917
38	0xbd91aab1	-0.07112635
39	0x3e2f63b4	0.17127877
40	0xbdf89cc8	-0.12139279
41	0xbdbe6ac9	-0.092977114
42	0x3de164ae	0.11005531
43	0x3df69a93	0.120412014
44	0x3d039c8a	0.03213171
45	0x3e3aff4e	0.18261454
46	0x3defcb8e	0.11708747
47	0xbe443056	-0.19159064
48	0x3da30973	0.07960787
49	0x3e2b8762	0.16750863
50	0xbde6e588	-0.11274248
51	0xbd82e2de	-0.06390928
52	0xbe2a8d78	-0.16655529
53	0x3da74316	0.081670925
54	0xbe0bf3ab	-0.1366717
55	0xbdb5ef45	-0.08883528
56	0x3e8f17cd	0.27947846
57	0xbde970e8	-0.11398488
58	0x3db2823f	0.08716249
59	0x3e005768	0.12533343
60	0xbc141124	-0.00903729
61	0xbe1457f8	-0.14486682
62	0xbe63167b	-0.22176544
63	0xbda93c1f	-0.0826342
64	0x3d9959bb	0.07487818
65	0x3e870428	0.26370358
66	0xbe6f7fb8	-0.23388565
67	0xbcdda826	-0.027057718
68	0xbe5f9408	-0.21833813
69	0x3e4d0c00	0.20024109
70	0xbe86e12d	-0.2634367
71	0x3e4bf519	0.19917716
72	0xbd94c04b	-0.072632395
73	0xbe4e3f50	-0.2014134
74	0xbe257ab3	-0.16160087
75	0xbe6285d6	-0.22121367
76	0xbd2bf10b	-0.041977923
77	0x3e0eb89b	0.13937609
78	0xbe5d74d5	-0.21626599
79	0xbd4e60c1	-0.05038524
80	0xbb44ef4a	-0.0030049854
81	0xbe23f6b3	-0.16012077
82	0xbe5412cb	-0.20710294
83	0xbe5fbde2	-0.21849778
84	0xbe190483	-0.14943127
85	0x3dbb103e	0.09133957
86	0xbe381713	-0.17977552
87	0xbe877246	-0.2645437
88	0xbbafdda5	-0.0053669983
89	0xbe1066fd	-0.14101787
90	0x3dd916a6	0.10600023
91	0xbe8e1b90	-0.27755404
92	0x3e501c9d	0.20323415
93	0xbe6d08bd	-0.23147865
94	0xbe8ffe40	-0.28123665
95	0x3d88129b	0.06644174
96	0xbe07dbdd	-0.13267465
97	0x3e0b585d	0.13607927
98	0xbd3bf59a	-0.04588852
99	0x3cf06bfe	0.02934837
100	0x3dd16f77	0.10226338
101	0x3e64d69e	0.22347495
102	0xbd92730b	-0.07150849
103	0xbd6b5ce7	-0.057461645
104	0xbdc5952a	-0.096475914
105	0x3e13489b	0.14383166
106	0xbda0a8ea	-0.07844718
107	0xbe968d46	-0.29404658
108	0xbd9518d5	-0.07280127
109	0xbe80752c	-0.25089395
110	0xbe383f5b	-0.17992918
111	0x3d696f38	0.056990832
112	0xbe8c4940	-0.27399635
113	0x3e02b867	0.12765656
114	0x3dc754f1	0.09732998
115	0xbdc2c016	-0.09509294
116	0x3e770e5c	0.24126571
117	0x3dbe6738	0.09297031
118	0x3dba5100	0.09097481
119	0x3dbd1243	0.09231999
120	0x3e181b0f	0.14854072
121	0x3dba00bd	0.09082172
122	0x3e40dbea	0.1883389
123	0x3c5e4810	0.013566986
124	0xbe56044c	-0.20900077
125	0x3d1eccc0	0.038769484
126	0xbe02a802	-0.12759402
127	0x3de85c97	0.11345785
128	0x3d98c069	0.07458574
129	0x3e47ac05	0.19499214
130	0x3e410e2a	0.1885306
131	0xbe17969c	-0.14803547
132	0xbe474451	-0.19459654
133	0xbda6db43	-0.081472896
134	0xbc29b716	-0.0103585925
135	0xbe5cc023	-0.2155767
136	0xbd4c3189	-0.049851928
137	0xbe269b5b	-0.16270201
138	0xbe8230da	-0.25427896
139	0x3e21502c	0.1575324
140	0xbda0b49b	-0.07846948
141	0x3cbb92eb	0.022897204
142	0x3e863302	0.2621079
143	0xbe1e6b3d	-0.15470596
144	0x3e00873c	0.12551588
145	0x3da79243	0.08182194
146	0x3e3ed933	0.18637542
147	0x3e556159	0.20837916
148	0xbdf57135	-0.11984483
149	0xbe3f378a	-0.1867353
150	0x3d5a0695	0.053228933
151	0x3e699e6b	0.22814338
152	0xbc643098	-0.013927601
153	0x3d20531e	0.039141767
154	0x3cacc66e	0.021090712
155	0x3d4059ff	0.046960827
156	0xbe317886	-0.17331132
157	0x3e84a29f	0.2590532
158	0xbe1c8f69	-0.15289082
159	0xbd3afd3c	-0.04565166
160	0x3e2fa087	0.1715108
161	0x3e4e1445	0.2012492
162	0x3cc8fe23	0.024535244
163	0xbe08f2b6	-0.13373837
164	0x3e111e8a	0.14171806
165	0xbd9690df	-0.07351851
166	0xbdc1f279	-0.09470076
167	0xbc84fca3	-0.016233748
168	0xbe028e26	-0.12749538
169	0xbe154e1e	-0.1458058
170	0xbd9f5267	-0.07779389
171	0xbe79400b	-0.24340837
172	0xbb1e84e2	-0.002418809
173	0xbe9bca3c	-0.3042773
174	0xbe8febb2	-0.2810951
175	0xbe143922	-0.1447492
176	0x3e567eaf	0.20946763
177	0x3e9510d1	0.29114392
178	0x3d7bf4cc	0.061512753
179	0xbe4fae58	-0.2028135
180	0xbe3d354f	-0.18477367
181	0x3e2c1ae2	0.1680713
182	0xbdf7b893	-0.120957516
183	0xbdadad66	-0.08480339
184	0x3e518ea3	0.20464568
185	0xb994e3d9	-0.0002839852
186	0xbe0616dc	-0.13094658
187	0x3a88b9bf	0.0010431333
188	0xbd300253	-0.042970967
189	0x3e286e1b	0.16448252
190	0x3d495ad1	0.049158875
191	0xbe472ba1	-0.19450237
192	0xbe4f5417	-0.20246921
193	0xbe42635d	-0.18983217
194	0x3e8c6e1a	0.2742775
195	0xbe905570	-0.28190184
196	0xbe608b2a	-0.21928087
197	0x3dae5279	0.08511824
198	0x3de49dc1	0.11162902
199	0xbe025926	-0.1272932
200	0xbd5d143b	-0.05397437
201	0xbac32fc2	-0.0014891552
202	0x3e40a85a	0.18814221
203	0x3c4383f0	0.011933312
204	0x3df613d1	0.120154984
205	0x3dd415ec	0.10355744
206	0x3e428a87	0.18998156
207	0x3e3ced1a	0.18449822
208	0x3dcff0f3	0.10153379
209	0x3e867ffa	0.26269513
210	0x3e862854	0.26202643
211	0x3da5e553	0.08100381
212	0x3e5cca90	0.21561646
213	0x3e3c9346	0.18415555
214	0xbe25a448	-0.1617595
215	0x3dbc4ab7	0.09193938
216	0xbbeec2fe	-0.0072864285
217	0xbc67aab7	-0.014139823
218	0xbe234ee3	-0.15948062
219	0x3e5cef3f	0.2157564
220	0xbd8df3d0	-0.06931269
221	0xbca00984	-0.019535787
222	0x3c428220	0.0118718445
223	0x3cb9797d	0.022640938
224	0x3e42e48f	0.190325
225	0xbe57692d	-0.21036215
226	0x3d368957	0.04456457
227	0x3d0dd2d3	0.034624886
228	0x3e4efd0e	0.2021372
229	0x3e6c02e1	0.23047973
230	0xbdfdb514	-0.123880535
231	0x3e270025	0.16308649
232	0x3da3128f	0.07962524
233	0xbd1ad600	-0.037801743
234	0x3e0b317e	0.13593099
235	0x3cf7c0ca	0.030243296
236	0x3dd48936	0.103777334
237	0xbc03b5e4	-0.008038972
238	0x3c85b9c7	0.016323937
239	0xbd24e313	-0.040255617
240	0xbd913f97	-0.07092207
241	0x3e328ef4	0.17437345
242	0xbdd0f0bb	-0.10202166
243	0x3dfe5b1e	0.12419723
244	0x3d8ea93f	0.06965875
245	0xbe8df401	-0.27725223
246	0x3da092f6	0.078405306
247	0x3e8ccbcc	0.27499235
248	0xbdec88a9	-0.11549503
249	0x3e96dfb9	0.29467562
250	0x3bb9df7a	0.0056723924
251	0x3ded0b1f	0.11574387
252	0x3df2198f	0.11821281
253	0xbd25b8a0	-0.040459275
254	0xbe0357fc	-0.12826532
255	0x3ccb1d2c	0.024794184

condition.layers.0.self_attn.fc1.weight f4 [16, 16]
0	0x3d9de2aa	0.07709248
1	0x3e5e3086	0.21698198
2	0xbdb099d3	-0.0862309
3	0x3e5e3b14	0.21702224
4	0x3e842957	0.2581279
5	0xbe022480	-0.12709236
6	0x3e0b1443	0.13581948
7	0xbe8527a1	-0.26006797
8	0xbdeeb2f4	-0.11655226
9	0xbe79b2e8	-0.24384654
10	0xbd8ad952	-0.06779732
11	0x3dc9341c	0.09824392
12	0xbccfb128	-0.02535303
13	0x3e761a40	0.24033451
14	0xbe188d1b	-0.14897577
15	0xbd279d59	-0.040921543
16	0xbdf1917b	-0.11795326
17	0xbdad69f9	-0.08467478
18	0xbe76b167	-0.24091111
19	0xbdd16405	-0.10224155
20	0x3d97fa1d	0.07420752
21	0x3ddab97f	0.10679912
22	0xbd50fbe3	-0.051021468
23	0xbdf603df	-0.12012457
24	0x3dad078e	0.084487066
25	0x3d185a02	0.037195213
26	0x3df2ebfa	0.11861415
27	0x3d6fb296	0.058519922
28	0xbe8df7d0	-0.27728128
29	0xbdc9144b	-0.09818324
30	0xbdf00764	-0.1172016
31	0xbce1ead0	-0.027577788
32	0x3e8fe63c	0.28105342
33	0x3d80bbb8	0.062858045
34	0xbe380319	-0.17969932
35	0x3defc006	0.117065474
36	0xbe0bb9f2	-0.13645151
37	0x3e480e17	0.19536625
38	0x3e91a935	0.28449407
39	0xbe33b226	-0.17548427
40	0xbdd435f0	-0.1036185
41	0xbe8bb17d	-0.2728385
42	0x3cebeb3b	0.02879869
43	0x3e0aec05	0.13566597
44	0x3e075366	0.13215408
45	0xbe4e1a27	-0.20127164
46	0x3df878d7	0.12132423
47	0xbcaa8558	-0.020815536
48	0x3e67fe4e	0.22655603
49	0xbd564714	-0.05231388
50	0x3e312b4f	0.17301677
51	0x3e6c5762	0.23080209
52	0xbdb65e61	-0.0890472
53	0x3e20c3dd	0.15699716
54	0x3e9bd658	0.3043697
55	0x3d8332e4	0.06406191
56	0x3d51981a	0.051170446
57	0xbd93b77e	-0.07212733
58	0xbb36e6a8	-0.0027908478
59	0x3d663d16	0.0562106
60	0xbdbd8805	-0.09254459
61	0x3e4b24e1	0.19838287
62	0xbde06603	-0.10956957
63	0xbd512522	-0.051060803
64	0x3e223081	0.15838815
65	0xbe68b0df	-0.22723721
66	0xbdf068e8	-0.11738759
67	0x3c6a3f36	0.014297297
68	0x3da61189	0.08108813
69	0xbe41263e	-0.18862244
70	0x3d3737f9	0.044731114
71	0x3e0b3af3	0.13596706
72	0xbe409779	-0.18807782
73	0x3dc51b2a	0.09624322
74	0xbd6ba57a	-0.057530858
75	0xbe85aaca	-0.26106864
76	0x3e4b6d55	0.19865926
77	0x3dd2eadc	0.10298702
78	0xbe0815cd	-0.13289566
79	0xbe3c1039	-0.18365563
80	0x3e460cf8	0.19340885
81	0x3e0060df	0.12536953
82	0x3e0a3a89	0.13498892
83	0x3e556918	0.20840871
84	0x3e14ef35	0.14544375
85	0xbc2a2166	-0.010383939
86	0x3c31c3ee	0.010849936
87	0xbda88d0e	-0.08230029
88	0xbe0badbe	-0.13640496
89	0xbe7d39b8	-0.24729049
90	0x3de96700	0.11396599
91	0xbd6cbd8e	-0.05779796
92	0xbe7ecf6b	-0.24883811
93	0xbe170e48	-0.14751542
94	0x3e882678	0.2659185
95	0x3d9b77ac	0.07591185
96	0xbe7d9f25	-0.2476774
97	0x3df5038c	0.11963567
98	0x3e7caab9	0.246745
99	0xbe7c1d23	-0.2462049
100	0xbe0a1a7e	-0.13486668
101	0x3e2702fb	0.1630973
102	0x3e1289f4	0.14310437
103	0x3d35e872	0.04441113
104	0x3e235a18	0.15952337
105	0xbd78c817	-0.060737696
106	0xbe9adb24	-0.30245316
107	0xbe9a4ec4	-0.30138218
108	0xbe15b620	-0.14620256
109	0x3dccd534	0.10001603
110	0xbe699f37	-0.22814642
111	0xbd4f6e43	-0.050642263
112	0xbe956502	-0.29178625
113	0xbe7de13e	-0.24792954
114	0x3cbc3932	0.022976492
115	0xbe3af4f4	-0.18257505
116	0xbe39d2ea	-0.18146864
117	0xbe4d3ef0	-0.2004354
118	0xbe664886	-0.22488603
119	0x3d41bf04	0.047301307
120	0xbd856ddc	-0.06515095
121	0xbe0758c2	-0.13217452
122	0x3dd11369	0.1020878
123	0x3d8aff0d	0.06786928
124	0x3e8ffd10	0.2812276
125	0xbe765f3c	-0.24059767
126	0x3d3fd467	0.046833422
127	0xbc324f25	-0.010883127
128	0x3de7f50e	0.11326037
129	0xbbbfe1f6	-0.005855794
130	0xbe80b317	-0.25136635
131	0x3e550cc8	0.20805657
132	0xbe35e263	-0.17762141
133	0x3e5bc758	0.21462762
134	0x3e79bdb4	0.24388772
135	0xbe336d3e	-0.17522141
136	0xbe2b30bb	-0.16717808
137	0x3e2efb8f	0.1708815
138	0xbdef18b1	-0.116746314
139	0x3d8035da	0.06260271
140	0xbde3e4be	-0.111276135
141	0xbd09502e	-0.03352373
142	0xbe159569	-0.14607777
143	0xbdb3f693	-0.08787265
144	0xbe679374	-0.22614843
145	0xbe9fbd39	-0.31199053
146	0x3ca0bc1e	0.019620951
147	0x3e1e2298	0.15442884
148	0x3c8aec8e	0.016958501
149	0x3cd8ba46	0.02645601
150	0x3d73acb1	0.059490863
151	0x3bad2be4	0.005284773
152	0x3d9802a5	0.074223794
153	0x3d9e6ddd	0.077357985
154	0xbe9f4e8b	-0.3111461
155	0x3cc782ad	0.024354303
156	0x3e42fa31	0.19040753
157	0xbd4805b4	-0.048833564
158	0xbd2d6edf	-0.042342063
159	0x3e312f30	0.17303157
160	0xbcf59762	-0.029979412
161	0xbe1f59c7	-0.15561591
162	0x3e7525e2	0.23940232
163	0x3dfa3cc0	0.122186184
164	0xbdcf2aeb	-0.10115608
165	0x3d976280	0.07391834
166	0xbe84d930	-0.2594695
167	0xbd24f23d	-0.04027008
168	0x3d887f56	0.066649124
169	0x3e2e1898	0.1700157
170	0x3da855a2	0.08219458
171	0xbe22b155	-0.1588796
172	0xbc6544be	-0.01399344
173	0xbe494765	-0.19656141
174	0xbe9ec93f	-0.31012914
175	0xbd116158	-0.035493225
176	0xbe811f91	-0.25219396
177	0xbe24b871	-0.16085984
178	0x3e4b135e	0.19831607
179	0xbe3ad685	-0.18245895
180	0xbe062866	-0.13101348
181	0x3da4b571	0.0804242
182	0x3dde1be0	0.108451605
183	0xbdf5eb98	-0.120078266
184	0xbd7d1f96	-0.0617977
185	0xbd853c00	-0.06505585
186	0xbdadbf39	-0.084837385
187	0xbe25ff0d	-0.16210575
188	0x3d54e57a	0.05197666
189	0xbd50a84f	-0.05094176
190	0x3d894302	0.06702234
191	0x3d411fe1	0.047149543
192	0x3d90137c	0.07034966
193	0xbe1acda1	-0.15117504
194	0x3d02e445	0.031955976
195	0xbc8c5c39	-0.017133819
196	0x3e371ff9	0.1788329
197	0x3e8817d0	0.26580667
198	0x3e9c0b6a	0.30477458
199	0x3de90fa7	0.113799386
200	0x3e2ebf3f	0.17065142
201	0xbe503397	-0.2033218
202	0xbd64eeb6	-0.055891715
203	0x3d8aa92c	0.06770548
204	0xbd9a914d	-0.07547245
205	0xbe04d925	-0.12973459
206	0x3dd6f651	0.104962
207	0xbe129bcb	-0.14317243
208	0xbe131663	-0.14364009
209	0xbd032c07	-0.03202441
210	0x3e47ea30	0.19522929
211	0xbdfa43ee	-0.12219988
212	0x3d2336f7	0.03984734
213	0xbe2d7216	-0.16938052
214	0x3b82f49f	0.0039964463
215	0xbbb817ee	-0.005618087
216	0x3e45c5af	0.19313692
217	0x3dd422af	0.10358178
218	0xbe6fdaf9	-0.23423375
219	0xbe6e14b6	-0.23250088
220	0x3e3a82b4	0.18213922
221	0xbe3ae802	-0.18252566
222	0x3e451336	0.1924561
223	0x3e534ef2	0.20635584
224	0xbd7c52c5	-0.061602373
225	0xbdecb4cc	-0.11557922
226	0x3e5ba347	0.21449004
227	0x3e10cbc3	0.14140229
228	0xbe9bd5a9	-0.30436447
229	0xbdca56f9	-0.0987987
230	0xbe75154d	-0.23933907
231	0x3df3c38a	0.119025305
232	0x3e52a518	0.20570791
233	0x3d309f39	0.043120597
234	0x3d1569c8	0.036477834
235	0xbe08f5ca	-0.13375011
236	0x3e7ea04b	0.24865834
237	0x3dc17a04	0.09447101
238	0xbe8d96b4	-0.2765404
239	0x3e946aa4	0.2898761
240	0x3e06bde8	0.13158381
241	0xbdcaf48d	-0.099099256
242	0xbc7e0bfe	-0.015505789
243	0xbea4462c	-0.32084787
244	0xbe89005b	-0.26758084
245	0x3e1f3f2e	0.15551445
246	0xbce6c736	-0.028171163
247	0xbd8fbc28	-0.0701831
248	0xbda6bc46	-0.08141379
249	0xbe070da2	-0.13188794
250	0xbdce0102	-0.10058786
251	0xbb371998	-0.002793884
252	0x3e30e1cb	0.17273633
253	0x3dcd0653	0.10010972
254	0xbdd57ae5	-0.10423831
255	0x3e45c394	0.19312888

condition.layers.0.self_attn.fc1.bias f4 [16]
0	0x3d488208	0.048952132
1	0xbc2ee24f	-0.010674073
2	0x3db50c6d	0.08840261
3	0xbe2d6a41	-0.16935064
4	0x3d6092c6	0.054827474
5	0x3e1ec140	0.15503407
6	0x3deda727	0.116041474
7	0xbdf70611	-0.12061704
8	0xbe63e5b4	-0.22255594
9	0xbe2b53c3	-0.16731171
10	0x3e5d4b0c	0.2161066
11	0x3e2f9ddb	0.17150061
12	0xbe0d2098	-0.13781965
13	0x3e9298ca	0.28632194
14	0x3e7c9d24	0.2466932
15	0x3e912c2d	0.28354016

condition.layers.0.layer_norm1.weight f4 [16]
0	0x3f7eb0eb	0.99488705
1	0x3f867a87	1.0506142
2	0x3f721941	0.94569784
3	0x3f732de8	0.9499192
4	0x3f806f0a	1.0033886
5	0x3f846ef6	1.0346363
6	0x3f76378d	0.96178514
7	0x3f7616a9	0.96128327
8	0x3f87df6f	1.0615062
9	0x3f76bf45	0.96385604
10	0x3f661944	0.898823
11	0x3f7a9dbd	0.9789694
12	0x3f8a8e79	1.0824729
13	0x3f735837	0.9505648
14	0x3f6e7d67	0.931601
15	0x3f729c63	0.9476988

condition.layers.0.layer_norm1.bias f4 [16]
0	0xbd9fc98b	-0.07802113
1	0xbdfa0e58	-0.12209767
2	0xbe6ad817	-0.22933994
3	0xbe11ca4e	-0.1423733
4	0x3dde06eb	0.10841163
5	0xbe0f1f44	-0.1397677
6	0x3e5baef8	0.21453464
7	0x3e52babc	0.20579046
8	0xbd9f308d	-0.07772932
9	0x3da2f1ee	0.07956301
10	0x3e24dc81	0.1609974
11	0x3e006c01	0.125412
12	0xbdf79abd	-0.12090061
13	0x3daef9d5	0.085437454
14	0x3dcce9e6	0.1000555
15	0x3dbf48be	0.09340046

condition.layers.0.ffn.conv1.weight f4 [64, 16, 1]
0	0xbe95a524	-0.29227555
1	0x3e1b4d2e	0.1516616
2	0x3d892a99	0.06697578
3	0x3db13acc	0.08653793
4	0x3d7faf77	0.062423196
5	0x3c0e7ea8	0.008697189
6	0xbc580c44	-0.013186518
7	0xbd573294	-0.05253847
8	0x3d9e0363	0.0771549
9	0x3e04c5a8	0.12966025
10	0x3cae7b60	0.021299064
11	0x3e7745dc	0.24147743
12	0x3e678727	0.2261015
13	0x3e882766	0.2659256
14	0x3d7a2d6b	0.06107847
15	0x3cb54649	0.022128241
16	0x3e19e8f9	0.15030278
17	0x3d97188d	0.073777296
18	0xbded37b1	-0.11582888
19	0xbe62a037	-0.2213143
20	0xbc3fcb69	-0.011706212
21	0xbddf1f9c	-0.10894701
22	0xbe7a07dd	-0.24417062
23	0xbd35f839	-0.044426177
24	0xbe3bb9b3	-0.18332557
25	0xbe22784f	-0.15866207
26	0xbd84efe1	-0.06491066
27	0x3e737fa7	0.23779164
28	0xbe8f564e	-0.27995533
29	0x3da58ecf	0.08083879
30	0x3e75663c	0.2396478
31	0x3e82c695	0.2554213
32	0xbe846cbf	-0.25864217
33	0x3e88e23a	0.26735097
34	0xbd963dfc	-0.07336041
35	0xbe92f306	-0.28701037
36	0xbe1c86ca	-0.15285793
37	0xbe07ba18	-0.13254583
38	0x3ca83bef	0.020536391
39	0xbe27b886	-0.16378984
40	0xbe20ca7b	-0.1570224
41	0xbe592f4e	-0.21209452
42	0x3e6064d7	0.21913467
43	0xbe153dc0	-0.14574337
44	0x3e1776cf	0.14791416
45	0x3c7b715a	0.015346849
46	0x3e223f5e	0.15844485
47	0xbe0ef566	-0.139608
48	0xbd9db257	-0.07700031
49	0xbd9c0180	-0.076174736
50	0x3e4a3b57	0.19749199
51	0xbe0bb706	-0.13644037
52	0xbe93ab34	-0.28841555
53	0x3ddeebe7	0.108848386
54	0xbd14fba2	-0.03637279
55	0x3e15c08f	0.14624237
56	0x3df6534f	0.120276086
57	0xbe30b76e	-0.17257473
58	0xbe3d4571	-0.18483521
59	0xbd8d438f	-0.068976514
60	0xbd5bc5d5	-0.053655464
61	0xbdfe64e9	-0.12421591
62	0x3de1a1f9	0.11017222
63	0xbc883c04	-0.01663018
64	0xbe7b0eb3	-0.24517326
65	0x3db9c628	0.090709984
66	0xbe247d95	-0.1606353
67	0x3e61a313	0.22034864
68	0x3af511b5	0.0018697294
69	0x3d8af489	0.06784923
70	0x3d4d4ea1	0.050123814
71	0xbb9c393a	-0.004767564
72	0xbe751c44	-0.23936564
73	0x3e2628db	0.16226523
74	0x3e7643e0	0.2404933
75	0x3c87fb53	0.016599333
76	0x3d0a65cb	0.033788484
77	0xbe2e76dd	-0.1703753
78	0x3e913a04	0.28364575
79	0x3e64def4	0.22350675
80	0xbe3397f1	-0.1753843
81	0x3d6216ff	0.055197712
82	0xbe8a493a	-0.27008992
83	0xbdd30030	-0.1030277
84	0xbc3717bf	-0.011175095
85	0x3e9533e5	0.29141155
86	0x3e37726a	0.17914739
87	0x3d437076	0.047714673
88	0x3e1d16e2	0.1534076
89	0x3e13a078	0.14416683
90	0xbe11d2da	-0.1424059
91	0x3e4b98ee	0.19882557
92	0xbe61ea8c	-0.22062129
93	0xbe36a4ec	-0.1783635
94	0xbe349735	-0.17635806
95	0x3e02c62d	0.1277091
96	0x3e30cfa4	0.17266709
97	0x3e6d5c60	0.2317977
98	0x3e324a14	0.17411071
99	0x3e65a55d	0.22426362
100	0x3deffcee	0.117181644
101	0xbe45db8e	-0.19322035
102	0xbe5ff3ad	-0.21870299
103	0x3e95ad8c	0.29233968
104	0xbe1c964f	-0.15291713
105	0xbe0be6c0	-0.13662243
106	0xbe277de0	-0.16356611
107	0x3e28d61f	0.1648793
108	0x3e260106	0.16211328
109	0x3d040464	0.03223075
110	0x3e0cb153	0.13739519
111	0x3d46eb24	0.04856409
112	0xbe5fb080	-0.21844673
113	0xbe060140	-0.13086414
114	0xba649e17	-0.0008721067
115	0x3e97e967	0.2967026
116	0xbd208cfb	-0.03919695
117	0xbdd25c3b	-0.10271498
118	0x3d756560	0.05991113
119	0x3d757d41	0.059933905
120	0xbe930429	-0.2871411
121	0x3e3fd9f4	0.18735486
122	0x3e35efa7	0.17767201
123	0xbe61a61e	-0.22036025
124	0xbd54adc1	-0.051923517
125	0x3e845b73	0.2585102
126	0x3e7cfeb1	0.24706532
127	0xbe3ad7a0	-0.18246317
128	0x3c4fe915	0.012689848
129	0x3e80321c	0.2503823
130	0x3d972699	0.07380409
131	0xbe59a0e1	-0.21252777
132	0xbe6b65dc	-0.22988075
133	0xbe199d89	-0.15001501
134	0xbe3cfe8a	-0.18456474
135	0x3e4da3fe	0.2008209
136	0xbcb03e00	-0.021513939
137	0x3dd938e1	0.10606552
138	0x3e345a1a	0.17612496
139	0xbdfcae00	-0.12337875
140	0xbdf91297	-0.12161749
141	0xbe203d76	-0.15648445
142	0xbdc114fb	-0.0942783
143	0xbe60c465	-0.21949919
144	0x3e32e05d	0.174684
145	0x3de1dcd1	0.110284455
146	0xbe3797ce	-0.17929003
147	0xbea409b8	-0.32038665
148	0x3e0a3ed0	0.13500524
149	0x3daa52a9	0.083165474
150	0xbc5bd9a9	-0.013418593
151	0x3e42adef	0.19011663
152	0xbd30dc5d	-0.043178905
153	0x3e705816	0.23471102
154	0x3bd33765	0.0064458125
155	0x3e378e80	0.17925453
156	0xbe6ca11e	-0.23108336
157	0xbdeed4dd	-0.11661694
158	0x3e69f9b1	0.22849156
159	0xbdec5a40	-0.11540651
160	0xbe785259	-0.24250163
161	0x3e0d0df0	0.13774848
162	0x3dcd00ea	0.1000994
163	0xbe5bc154	-0.21460468
164	0x3e27696f	0.16348813
165	0xbe572895	-0.21011575
166	0x3de581e7	0.112064175
167	0x3e8db9ed	0.27680913
168	0xbcef6ff3	-0.029228186
169	0xbdc30d54	-0.095240265
170	0xbe23a895	-0.15982278
171	0x3e1bfe90	0.15233827
172	0x3db8e715	0.090284504
173	0x3e01c920	0.1267438
174	0x3cb46349	0.02202
175	0x3d0b04ce	0.03394013
176	0xbe3b40c8	-0.18286431
177	0x3e6cd1fa	0.23126975
178	0x3d23fe47	0.04003742
179	0xbda2941c	-0.07938406
180	0xbd963741	-0.073347576
181	0xbe47ce40	-0.19512272
182	0x3e67116a	0.22565237
183	0xbdc8b823	-0.09800746
184	0xbe909f2e	-0.28246444
185	0xbd63223b	-0.055452567
186	0xbe8f6132	-0.28003842
187	0x3e6aa7d7	0.22915588
188	0xbe6a4adc	-0.22880119
189	0xbdec2a5d	-0.11531518
190	0x3ce4ee63	0.027945703
191	0x3e242299	0.16028823
192	0x3cff5746	0.031169545
193	0x3e16eb30	0.14738154
194	0xbdf82856	-0.121170685
195	0xbd055225	-0.032549042
196	0x3cf41c2d	0.029798592
197	0x3db547d6	0.08851592
198	0x3e45c715	0.19314225
199	0xbdecfe27	-0.11571913
200	0xbdb0ac0b	-0.086265646
201	0xbce85ff8	-0.028366074
202	0xbdfe57d7	-0.12419098
203	0xbe37d24c	-0.17951316
204	0x3db60fa1	0.088897
205	0xbde1944b	-0.11014613
206	0x3c5567f4	0.013025273
207	0xbe2ba4c9	-0.1676208
208	0x3e855b80	0.2604637
209	0xbbb98ea4	-0.005662756
210	0xbd881322	-0.06644274
211	0x3de7d8f8	0.113206804
212	0x3e87b7b0	0.2650733
213	0xbdee3a24	-0.11632183
214	0x3db40a15	0.087909855
215	0x3dcad1d9	0.099033065
216	0xba52d7d0	-0.0008043023
217	0x3e24cd14	0.16093856
218	0x3e20d74f	0.15707134
219	0x3de17746	0.11009078
220	0xbd16b1f7	-0.036790814
221	0x3e746f9b	0.23870699
222	0x3e14dbec	0.14537019
223	0x3e3990da	0.18121663
224	0xbe1535ec	-0.14571351
225	0xbe957a47	-0.29194853
226	0xbe037a59	-0.1283964
227	0xbea1615f	-0.315196
228	0x3c725b64	0.014792297
229	0xbe6731c1	-0.22577573
230	0x3ddcdd66	0.10784416
231	0xbe6a0bda	-0.22856084
232	0x3e3d8976	0.18509468
233	0x3de17c78	0.11010069
234	0x3d805d36	0.062677786
235	0xbe602e5b	-0.21892683
236	0xbc865c3c	-0.016401403
237	0xbe3a2c11	-0.18180872
238	0x3e426749	0.18984713
239	0xbe19f335	-0.15034182
240	0xbdd65c8e	-0.10466872
241	0x3e317790	0.17330766
242	0x3e18f667	0.14937745
243	0xbd82815f	-0.06372332
244	0x3dd9c01c	0.10632345
245	0x3d71c66b	0.059027117
246	0xbe493d50	-0.19652295
247	0xbd6799c5	-0.05654313
248	0x3e520c4c	0.20512503
249	0xbe8948ad	-0.2681326
250	0xbe32c674	-0.17458516
251	0xbe835111	-0.25647786
252	0x3dd99a09	0.10625083
253	0xbe594bef	-0.21220373
254	0xbe622c28	-0.22087157
255	0x3cad6cc5	0.02117003

condition.layers.0.ffn.conv1.bias f4 [64]
0	0xbdbfc04f	-0.09362852
1	0xbe1c1489	-0.15242209
2	0x3da463a6	0.08026819
3	0x3dab58eb	0.08366569
4	0x3d8bfcb2	0.06835307
5	0xbd7b2b56	-0.061320625
6	0xbe182fef	-0.14862035
7	0x3e6bae29	0.23015656
8	0x3e561a53	0.2090848
9	0xbcb4a6c9	-0.022052186
10	0x3e65df3a	0.22448435
11	0x3e657121	0.22406437
12	0x3d505ac8	0.050867826
13	0x3e36adac	0.17839688
14	0xbe4c6738	-0.1996125
15	0xbe2c56ff	-0.16830061
16	0x3dda0719	0.10645885
17	0x3da733d5	0.08164183
18	0xbd25bbae	-0.04046219
19	0x3e7dff4d	0.24804421
20	0x3e04efbf	0.12982081
21	0x3e62b144	0.22137934
22	0x3e59bd1c	0.21263546
23	0x3d28f4d1	0.0412491
24	0xbe275e73	-0.16344623
25	0xbcc90e73	-0.024543023
26	0xbdf2679a	-0.11836167
27	0x3e5e5e99	0.21715774
28	0x3e9dc042	0.30810744
29	0xbd928d86	-0.071559
30	0xbcfe5125	-0.031044552
31	0x3dfe888b	0.12428387
32	0x3df31746	0.118696734
33	0x3e3d4843	0.18484597
34	0x3e1ab056	0.1510633
35	0x3e31ba0b	0.17356126
36	0xbdc84d67	-0.09780388
37	0x3e50f7a5	0.20406969
38	0xbc48f7f5	-0.012266149
39	0x3e049fae	0.12951538
40	0x3d8a0703	0.06739619
41	0x3d59666b	0.05307619
42	0xbe895236	-0.26820534
43	0x3d889acb	0.066701494
44	0xbd0a4317	-0.033755388
45	0xbe4401a6	-0.19141254
46	0xbd85c335	-0.065313734
47	0x3e4bda21	0.19907428
48	0xbbccdafb	-0.0062516904
49	0x3e291187	0.16510592
50	0xbe882e61	-0.26597884
51	0x3e1403ad	0.14454527
52	0x3e3fd9ad	0.1873538
53	0x3d8d1dce	0.068904504
54	0xbdc87239	-0.09787411
55	0xbdda8960	-0.106707335
56	0x3e474ce6	0.19462928
57	0x3d3e9434	0.046528056
58	0x3e297d36	0.1655167
59	0xbcc81e9c	-0.024428658
60	0x3e9e2c6e	0.30893272
61	0x3e89aa6d	0.26887837
62	0x3ddfacd6	0.10921638
63	0xbd2779bb	-0.040887576

condition.layers.0.ffn.conv2.weight f4 [16, 64, 1]
0	0x3dddf032	0.10836829
1	0xbd266f0f	-0.040633257
2	0x3d0525d0	0.032506764
3	0x3e0fd940	0.14047718
4	0x3cf89723	0.030345505
5	0x3d76cd7e	0.060254566
6	0x3e0b5f53	0.13610582
7	0xbda9e71c	-0.08296034
8	0xbd45b574	-0.04826875
9	0xbd87d04f	-0.066315286
10	0x3d495960	0.0491575
11	0xbd29c594	-0.04144819
12	0x3dbe4a83	0.09291556
13	0xbe3ac27a	-0.1823825
14	0xbddd1046	-0.107941195
15	0xbc83584c	-0.016033314
16	0xbcbcb05a	-0.02303331
17	0xbcd13624	-0.025538512
18	0xbe409ac7	-0.18809043
19	0x3ca35912	0.019939933
20	0xba1d8f31	-0.0006010412
21	0xbdb75c67	-0.08953171
22	0xbda61faf	-0.08111512
23	0x3d3398ad	0.043846775
24	0x3e2547f6	0.16140732
25	0xbd9d0b35	-0.07668153
26	0x3d7a3284	0.06108333
27	0xbddc1c48	-0.10747582
28	0x3dad15c3	0.08451416
29	0x3d5723a7	0.052524235
30	0x3d7819df	0.060571548
31	0xbbeaa026	-0.0071602045
32	0x3d4e90c0	0.050431013
33	0xbde804e1	-0.113290556
34	0x3e0178df	0.12643765
35	0xbd8560b4	-0.06512585
36	0x3cbddc08	0.023176208
37	0x3dbe62d4	0.09296194
38	0xbd319401	-0.04335404
39	0xbdcc1d51	-0.09966529
40	0xbd4c6496	-0.049900614
41	0xbdaad3c3	-0.083411716
42	0x3cbb16cd	0.02283802
43	0xbe04ebf6	-0.12980637
44	0xbe0ce65a	-0.13759747
45	0xbe2e4502	-0.17018512
46	0xbe0dcd32	-0.13847807
47	0xbd3bad03	-0.045819294
48	0xbd841ad6	-0.06450431
49	0xbdfc9104	-0.12332347
50	0x3e0ace75	0.1355532
51	0xbdbe1b36	-0.09282534
52	0x3d1d2177	0.038361993
53	0x3ca8ebe5	0.020620296
54	0x3db6520c	0.08902368
55	0xbca05240	-0.01957047
56	0xbd3ab802	-0.04558564
57	0xbd421645	-0.04738452
58	0x3c9b4122	0.018951956
59	0xbdc43ccc	-0.095819086
60	0x3d4b7eda	0.049681522
61	0xbe12873e	-0.14309403
62	0x3c60a126	0.013710296
63	0x3e044b38	0.12919319
64	0xbdda6443	-0.10663655
65	0x3da3833c	0.07984015
66	0x3e18e6e0	0.14931822
67	0xbdd72ac6	-0.10506205
68	0x391643cf	0.00014330375
69	0x3cc4d63c	0.024027936
70	0xbe0a75fe	-0.13521573
71	0x3caf4013	0.021392858
72	0x3dbd8e15	0.092556156
73	0xbe01b837	-0.12667929
74	0xbd42abf1	-0.047527257
75	0xbc97ea0b	-0.018544218
76	0x3d5951bf	0.053056475
77	0x3c7f0685	0.015565519
78	0xbc689dda	-0.014197791
79	0x3e1b24f9	0.15150823
80	0x3bf87cee	0.007583252
81	0xbd63b7e6	-0.0555953
82	0xbd2bc7be	-0.041938536
83	0xbd2cbb21	-0.042170648
84	0x3c96e990	0.018421918
85	0xbcb1955f	-0.021677671
86	0xbdf35125	-0.118807115
87	0x3dbb6e43	0.0915189
88	0x3e056f6e	0.13030788
89	0xbddbf7ca	-0.107406214
90	0xbe06b191	-0.13153674
91	0xbdef2529	-0.116770096
92	0xbdab91f4	-0.08377448
93	0xbc99f536	-0.018793683
94	0x3cdaca4c	0.02670779
95	0xbd3d9b28	-0.046290547
96	0xbd88cb2c	-0.06679377
97	0xbd7c9ba8	-0.061671883
98	0xbc125115	-0.008930464
99	0x3d52ee58	0.051496834
100	0xbdd772ef	-0.10519969
101	0xbdc74d19	-0.09731502
102	0x3b6d1247	0.0036174224
103	0xbdc38d5e	-0.09548448
104	0x3cc4afcb	0.024009606
105	0xbd28e607	-0.041234996
106	0xbd7de878	-0.061989278
107	0xbdb2ed47	-0.08736663
108	0x3c085194	0.008320231
109	0x3dae09dd	0.08497975
110	0xbcafee1b	-0.021475842
111	0x3d421fac	0.047393486
112	0x3dab1a87	0.08354669
113	0xbd0ccea9	-0.034376774
114	0x3e23da66	0.16001281
115	0xbdcd90d1	-0.10037387
116	0xbd1fd495	-0.039021093
117	0x3dca4805	0.09877018
118	0x3b065d13	0.0020502254
119	0x3c000a27	0.0078149205
120	0xbd48d6fa	-0.049033143
121	0xbda41294	-0.08011356
122	0xbe017d0d	-0.1264536
123	0xbce3e404	-0.027818687
124	0xbbfb7efb	-0.0076750494
125	0x3d8493a4	0.06473473
126	0x3d11e96b	0.035622995
127	0x3cb822f7	0.02247761
128	0x3d45205f	0.048126575
129	0xbdf9c2f8	-0.121953905
130	0xbe02def9	-0.1278037
131	0x3d906082	0.070496574
132	0x3d3b3241	0.045702223
133	0x3de7220c	0.11285791
134	0x3b22812b	0.0024796228
135	0xbd946609	-0.07246024
136	0xbddefa52	-0.108875886
137	0xbce58ad0	-0.028020293
138	0xbd71a8b2	-0.05899877
139	0xbd17c0fd	-0.037049282
140	0x3e227ef1	0.15868737
141	0x3da9d756	0.08293025
142	0xbdf5175c	-0.11967346
143	0x3e3403ec	0.17579621
144	0x3d5243b5	0.0513341
145	0xbdc566d1	-0.09638751
146	0xbe05b63a	-0.13057795
147	0xbd591217	-0.052995767
148	0x3d7eea8c	0.0622354
149	0xbd4b9b01	-0.04970837
150	0xbdfa5bbf	-0.122245304
151	0xbe1d60db	-0.15368979
152	0xbcee4bc7	-0.029088868
153	0x3e36e190	0.17859483
154	0xbe2a681d	-0.16641279
155	0x3caeb133	0.02132473
156	0xbd7cab65	-0.061686892
157	0x3d6442e1	0.055727843
158	0x3be6a722	0.0070389668
159	0x3d90ccc4	0.07070306
160	0xbd68cc50	-0.056835473
161	0xbdb17cce	-0.08666383
162	0x3cacb7ee	0.021083798
163	0xbe14ff2c	-0.14550465
164	0xbe279928	-0.16367018
165	0xbd8b1fc7	-0.067931704
166	0xbb8f1fdf	-0.004367813
167	0x3c855d80	0.016279936
168	0xbc3ae5f9	-0.011407369
169	0x3d804479	0.0626306
170	0x3d0f660f	0.03500944
171	0x3d869059	0.06570501
172	0xbe2fed69	-0.17180409
173	0xbc6469d6	-0.013941249
174	0x3d7322e9	0.059359465
175	0xbcaa6568	-0.020800307
176	0x3d375696	0.04476031
177	0x3cfb454c	0.030672692
178	0x3e69ec18	0.22843969
179	0xbddea4a6	-0.10871248
180	0xbbc324af	-0.0059553008
181	0x3e54df2a	0.20788255
182	0x3e1398f9	0.14413823
183	0xbc40c277	-0.011765114
184	0xbe4066d0	-0.1878922
185	0xbd9b0942	-0.07570125
186	0x3dcc9095	0.09988514
187	0xbdfc44a9	-0.123177834
188	0xbe2e12f3	-0.16999416
189	0xbc71ebc2	-0.014765682
190	0xbdab42d7	-0.08362358
191	0x3df26829	0.11836273
192	0x3d9e360b	0.07725152
193	0xbd9d6b33	-0.07686462
194	0x3dbb748e	0.091530904
195	0x3d8f2bd9	0.06990785
196	0xbcf08d2d	-0.029364193
197	0xbd725b55	-0.059169132
198	0x3d93db51	0.07219566
199	0xbe3947a5	-0.18093736
200	0x3d3d140e	0.046161704
201	0x3e21725a	0.15766278
202	0xbd9d622e	-0.07684742
203	0xbdd5d231	-0.104404815
204	0xbcf0d2a3	-0.029397314
205	0xbd772d64	-0.060346022
206	0x3e3fd961	0.18735267
207	0x3d9c2927	0.07625037
208	0x3c46481a	0.012102151
209	0xbd52ac8b	-0.05143408
210	0xbd724bfa	-0.05915449
211	0xbdbd5271	-0.0924424
212	0xbcabaea9	-0.020957308
213	0xbd82403c	-0.06359908
214	0x3dc3cecd	0.095609285
215	0xbe2fff52	-0.1718724
216	0x3d03efd0	0.032211125
217	0xbd03ccc3	-0.032177698
218	0xbe6a10ae	-0.22857925
219	0xbd53965c	-0.051657066
220	0xbd75859a	-0.059941866
221	0x3dfec249	0.12439401
222	0xbd936f77	-0.071989946
223	0xbdf38065	-0.11889724
224	0xbe035685	-0.12825973
225	0x3dabd8d0	0.08390963
226	0xbdf03e1a	-0.11730595
227	0x3df81dbf	0.121150486
228	0xbe290f37	-0.1650971
229	0x3e517ec9	0.20458521
230	0x3dae96de	0.085248694
231	0xbe054587	-0.13014804
232	0x3ca34bdc	0.019933634
233	0x3cbebd7c	0.023283713
234	0x3dc348de	0.09535383
235	0xbce0dc2e	-0.02744874
236	0x3e032d7d	0.12810321
237	0x3db6a92e	0.08918987
238	0xbc32f84f	-0.010923459
239	0xbd47cec0	-0.048781157
240	0xbd88c55f	-0.066782705
241	0xbdac1e8d	-0.084042646
242	0x3dcacf12	0.09902777
243	0xbe3ef713	-0.18648939
244	0x3b732e34	0.0037106397
245	0x3c8377e4	0.01604838
246	0xbe3244d2	-0.17409065
247	0xbd6ae34f	-0.057345685
248	0x3d29ff1a	0.04150305
249	0x3e2e989f	0.17050408
250	0xbd3ad60e	-0.045614295
251	0xbc963f3b	-0.018340698
252	0xbd922e69	-0.07137758
253	0x3af1ee78	0.001845791
254	0x3de583f4	0.11206809
255	0x3e0960f5	0.13415892

condition.layers.0.ffn.conv2.bias f4 [16]
0	0xbdd95d61	-0.10613514
1	0x3d9f9b7f	0.077933304
2	0xbe22e2d5	-0.15906842
3	0x3d1454d7	0.036213722
4	0xbd9e149d	-0.077187754
5	0x3ccc321c	0.024926238
6	0x3de09d3d	0.10967491
7	0xbc6081a6	-0.013702786
8	0xbdc7da6f	-0.0975846
9	0x3e093f4c	0.13403052
10	0x3e2dc930	0.16971278
11	0x3ce160d9	0.027512
12	0xbdd51d15	-0.104059376
13	0xbd5f6434	-0.05453892
14	0xbcb78b9a	-0.022405434
15	0x3db7c8f1	0.089738734

condition.layers.0.layer_norm2.weight f4 [16]
0	0x3f7919eb	0.9730517
1	0x3f85d8f5	1.0456835
2	0x3f7af4a7	0.9802956
3	0x3f743067	0.95386356
4	0x3f7e2607	0.99276775
5	0x3f83adbd	1.0287396
6	0x3f7c87e7	0.9864487
7	0x3f73b704	0.95201135
8	0x3f896c39	1.0736152
9	0x3f7c214c	0.98488307
10	0x3f715bf2	0.9428092
11	0x3f783cca	0.96967757
12	0x3f879f54	1.0595498
13	0x3f72a8ad	0.9478863
14	0x3f70c818	0.9405532
15	0x3f71204f	0.94189924

condition.layers.0.layer_norm2.bias f4 [16]
0	0xbdc3bbe0	-0.09557319
1	0xbda986fd	-0.082777
2	0xbe062dc8	-0.13103402
3	0xbddacf29	-0.10684044
4	0x3e4c15ac	0.19930142
5	0xbe1723ed	-0.14759798
6	0x3de54219	0.11194248
7	0x3e25e318	0.1619991
8	0xbe419cd0	-0.18907475
9	0x3dc9ec7e	0.098595604
10	0x3e51f961	0.20505287
11	0x3d959b11	0.07304967
12	0xbe086fea	-0.13323942
13	0x3e0e6aef	0.1390798
14	0x3dfba194	0.12286678
15	0x3dcb6bbf	0.0993266
